onnx/htdw_4438_standard_20260227_113156_model_1500.onnx (onnx, 758221 bytes, 8 tensors)

0.weight f4 [512, 45]
000000 9c 8d c0 3b 57 1a 58 3c 01 54 e9 3d ab c8 af be
       0.005876256 0.013189874 0.113929756 -0.34332785
000010 31 7f b3 3d 3c b1 4f 3d 56 4d b6 3d 0c 78 0f bd
       0.08764494 0.050706133 0.089014694 -0.035026595
000020 77 c4 4e 3f a2 d3 9b 3c 2e eb 8b bc 86 0c af 3d
       0.8076853 0.019021813 -0.017079916 0.085473105
000030 b2 66 97 3e 3b 1a c1 3e 85 34 21 3f d4 9e 93 3e
       0.29570538 0.37715325 0.62970763 0.28832114
000040 f6 b3 6c 3e be a4 22 3e ce 2a 3e be 35 3a 06 3f
       0.23115525 0.15883157 -0.18571016 0.52432567
000050 b7 7b 3f be 25 b0 8e be 69 fa 48 3e af b1 0c be
       -0.18699537 -0.27868763 0.19626774 -0.13739656
000060 b9 77 a5 3c d3 e0 c5 bf 9f b8 05 be 82 32 6c bf
       0.02019869 -1.5459236 -0.13058709 -0.9226457
000070 90 35 a5 3e eb 68 68 be 5e 1b d2 be 74 ec 5c be
       0.32267427 -0.22696273 -0.41036505 -0.21574575
000080 e0 4f 71 3e bc f0 cd 3a b9 3f 9a 3c 37 c7 94 bc
       0.23565626 0.0015712003 0.018829213 -0.0181614
000090 5b e4 7f 3c 86 39 79 3c 17 d7 5d 3c 5c 5b 64 bc
       0.015618409 0.015211469 0.013540051 -0.013937797
0000a0 47 40 b0 bc a7 d7 48 bc 91 32 da bc 16 a3 03 bc
       -0.021515025 -0.012258447 -0.02663544 -0.008034488
0000b0 6b 02 67 3c fb a7 a4 3e 28 55 0a be 70 3e c6 3d
       0.014099698 0.3215941 -0.13509047 0.09679878
0000c0 68 55 7b bf 25 fa 70 3d 4e b5 6c bd a7 e9 04 3c
       -0.98177195 0.058832306 -0.057790093 0.008112348
0000d0 2d 06 3e 3d 1a bd 04 be 71 ce e3 3e a2 d1 4d 3f
       0.04639261 -0.12962762 0.4449344 0.80398
0000e0 32 e8 15 3f 04 8a bf 3e bf 87 16 3f 3e 78 39 3e
       0.58557427 0.37409985 0.5880088 0.18112275
0000f0 01 eb 58 be 75 2a cc be 8b 44 9b bc 18 9b 70 be
       -0.21183397 -0.39876142 -0.018953582 -0.23496664
000100 83 39 1a bf 22 2a 32 be ff 35 82 3e b6 e8 2b bf
       -0.60244006 -0.17398885 0.2543182 -0.67151964
000110 ab 2c 92 3e 53 0b e4 be e6 13 98 3f 35 84 da 3e
       0.28549704 -0.4453989 1.1881073 0.4267899
000120 a8 f3 9c 3f ea 5c 4d 3f 51 39 22 3e 2d 55 4b 3f
       1.2261858 0.802199 0.15842177 0.7942684
000130 95 50 d2 be 4e ea 68 bf 96 72 04 3d 00 7e 1c 3d
       -0.41077104 -0.9098252 0.03233584 0.0382061
000140 d1 53 78 bd 3a ee 24 3d d4 7e 2d bd cd ed 3b 3d
       -0.06062681 0.040266253 -0.04235728 0.04588108
000150 46 6b e6 3b 60 7d 6d bd de 53 9d 3d 2d 83 19 3d
       0.007031831 -0.057980895 0.07682012 0.037478615
000160 e6 c5 18 bd ed 47 f4 3b 3e c7 63 be eb 27 8d bd
       -0.037298106 0.0074548633 -0.22243974 -0.068923794
000170 31 85 19 3d 4c b5 87 be 4f 87 48 3d 1d 6f e1 bd
       0.037480537 -0.26505506 0.048957165 -0.11007521
000180 ce c3 8e 3c f7 d4 06 3c 60 7b 97 be 01 4f 30 be
       0.017427351 0.008229486 -0.29586315 -0.17217638
000190 85 b2 61 be 2b 36 44 3f 1d e9 fd bd 86 41 49 3e
       -0.22040756 0.76645154 -0.123979785 0.19653901
0001a0 e6 32 ad be 50 20 d5 3d 39 12 ea be ce a1 a4 3d
       -0.33827895 0.10406554 -0.45717028 0.08038674
0001b0 e2 5c d9 be 92 83 6a 3e 50 86 57 be a5 a9 39 3f
       -0.42453676 0.22901753 -0.2104733 0.7252448
0001c0 60 91 28 be 76 bc 78 be 8c ff 91 bf 87 96 37 3f
       -0.16461706 -0.24290642 -1.1406112 0.7171406
0001d0 c8 b8 19 3e 9c 89 bf 3e fd a0 f9 be 60 ec 30 bf
       0.15011895 0.37409675 -0.48755637 -0.6911068
0001e0 ba 71 8c be 16 68 0c bf 50 df 6c bf 25 cc 19 bc
       -0.27430516 -0.5484632 -0.9252825 -0.009387051
0001f0 53 28 f2 3b 14 36 53 bd 93 dd 10 3d 02 d0 0d bd
       0.007390061 -0.051565245 0.03536756 -0.0346222
000200 41 cc 00 bd 7f 60 8e bc ee 7e 09 3d 5d c1 05 3c
       -0.03144479 -0.017379997 0.033568315 0.008163777
000210 41 17 d5 3b 4a d0 c0 bc 6e d8 b6 bb f5 2c 9e 3e
       0.006503016 -0.02353682 -0.0055799996 0.30893674
000220 9c 16 41 3e 68 b3 2e be c2 1b af be 5c 21 01 3f
       0.18856281 -0.17060626 -0.34200865 0.5044153
000230 fa 59 a7 3d f2 78 11 be cb 3b f3 3d d2 ab 3e be
       0.081714585 -0.14206293 0.11876639 -0.18620232
000240 d0 d3 35 3e f8 71 86 bd 97 24 6f 3e 0e c2 99 bf
       0.17756581 -0.065647066 0.23353802 -1.2012346
000250 9e b9 d0 bd 3e c5 08 3f 65 e8 0c bf e5 e2 b4 3e
       -0.10191654 0.5342597 -0.55042106 0.35329357
000260 05 fe 11 3e 52 13 45 3d 1b 34 1f be 99 85 eb bc
       0.14257057 0.04811413 -0.1554722 -0.028750228
000270 9f 9e f0 3e e7 a8 2b 3f 19 14 2e 3e 97 84 74 bf
       0.46996018 0.670546 0.16999854 -0.95514816
000280 7e 50 bb 3e 53 fa 1a be 0c 4e 5d 3e 5b c4 fc 3e
       0.36584848 -0.15134554 0.21611804 0.49368557
000290 22 18 2f be 15 ff 39 be 54 53 8a 3e b3 00 ef be
       -0.1709905 -0.18163712 0.270167 -0.4668022
0002a0 b3 a9 eb bc 41 6f 43 bc 3c b3 10 bd 47 04 9a 3c
       -0.028767442 -0.0119283805 -0.03532718 0.018800868
0002b0 b0 c6 13 3d 75 27 74 3d 36 5f 31 bd 30 54 8c 3a
       0.036078155 0.05960794 -0.04330369 0.0010706242
0002c0 93 ea b3 bd 94 89 a7 bd 75 39 2b 3d 54 e0 71 3d
       -0.08784976 -0.08180538 0.041802842 0.059051827
0002d0 f4 1f 86 3d 47 6b 63 3c f9 f1 e6 bd 20 25 b5 3e
       0.06549063 0.013880557 -0.11276621 0.35379887
0002e0 5a 87 fc be bd 56 97 3c aa db d0 bd e4 12 11 be
       -0.49322015 0.018473977 -0.101981476 -0.14167362
0002f0 f0 c6 a3 3e f0 94 6b bf b1 fd 0c bf 77 75 08 be
       0.31987715 -0.92024136 -0.550746 -0.1332606
000300 72 23 d7 bd 0c 0f 7e be 26 3b fd be 9d b7 7a 3f
       -0.105048075 -0.24810427 -0.4945919 0.9793642
000310 45 66 76 3f ec ea a0 be 6e 34 d2 3e 8c 65 23 3e
       0.962498 -0.3142923 0.41055626 0.15956706
000320 42 b4 d1 3e a0 54 9d be d7 23 ac 3e ae 38 b5 bd
       0.40957838 -0.30728626 0.33621094 -0.088487014
000330 1f e1 07 bf 2a 98 a4 3e 16 7a 44 3f 0c f4 36 3f
       -0.5307788 0.32147342 0.7674879 0.71466136
000340 1b 07 1b bf c7 33 fa bd 1d 64 8e bf 75 02 b7 be
       -0.6055772 -0.12216907 -1.1124302 -0.35744062
000350 df 0b 19 be a2 e3 63 3c 7e 8a 26 38 b1 fc 93 bc
       -0.14945935 0.013909252 3.9706465e-05 -0.018064829
000360 26 02 44 3c 52 83 93 3b 2b 81 94 3c 1d 39 4b bc
       0.011963403 0.0045017386 0.018127998 -0.012403754
000370 57 82 b7 bc 17 22 fb bb 9d 23 e7 3c 0a ce 82 3c
       -0.022401018 -0.007663976 0.028215224 0.015967388
000380 f9 62 01 bb 5e ee 21 be e4 75 49 be 4e 2a 89 be
       -0.001974283 -0.15813586 -0.19673878 -0.26790088
000390 11 b9 6f be 68 03 2c be 4b f0 0c 3d 20 f6 f0 3d
       -0.23410441 -0.16798174 0.03440885 0.117656946
0003a0 a4 0f 82 be 88 6d 4e 3d 5f 5a 2a bf 92 79 68 bf
       -0.25402558 0.050397426 -0.66544145 -0.908105
0003b0 4e 53 95 3d 3c f9 0b 3e 33 1e 7f be 24 ae a2 bd
       0.0729128 0.13669294 -0.24913864 -0.07943371
0003c0 11 68 63 bd ed 98 27 3d 5d 2b c1 be 07 9b 00 be
       -0.055519167 0.040917326 -0.37728396 -0.12559138
0003d0 73 45 4d 3e c8 01 8c 3c e0 83 e2 3e 8a ce ac 3d
       0.20046024 0.017090693 0.44241238 0.08437832
0003e0 51 b3 df be 1a a5 83 bf f0 24 23 bf 17 6d 90 be
       -0.43691495 -1.028476 -0.6372824 -0.2820823
0003f0 c4 e7 95 3e bd b0 7d 3d b0 fc 63 bf a6 f2 da be
       0.29278386 0.06193613 -0.89057446 -0.4276325

0.bias f4 [512]
000000 6b 06 09 3d ad fb 2f 3b 1f 13 ed bd 11 dd 72 bd
       0.033453386 0.0026852891 -0.11575913 -0.059292857
000010 8e 41 30 3d 85 5d f4 bd df 49 84 3d 7c 44 06 3b
       0.043031268 -0.119319 0.06459402 0.0020487597
000020 ad b4 01 be 7c 3f 49 be 6b 94 a8 bc 92 79 0e be
       -0.12666579 -0.19653124 -0.020578584 -0.13913563
000030 13 2b a0 3c ae e2 98 bc de dd 90 bd 16 58 6e 3c
       0.01955179 -0.018662777 -0.07073568 0.0145473685
000040 9a a4 80 3d 3d 9d c9 bd 0a 0f 0e 3d a3 fb dc bd
       0.06281395 -0.09844444 0.03468231 -0.107901834
000050 b4 9f 25 bc dd 3f 73 bd b5 e4 80 3d b6 12 8c 3d
       -0.010108877 -0.059387077 0.062936224 0.06839506
000060 68 91 c8 bd fd 54 05 bd de 69 59 3d 0e 18 8b bd
       -0.09793359 -0.032551754 0.05307948 -0.067916974
000070 83 49 6d 3d 01 59 0f be c1 5b 13 be 96 31 f4 3c
       0.057931434 -0.13998796 -0.1439047 0.0298088
000080 f0 c8 3a be 05 24 7e bc a3 70 89 be 81 94 c6 bd
       -0.18240714 -0.015511517 -0.26843747 -0.096962936
000090 fd 1b 12 be 36 46 23 3d 36 da 8d 3c a9 fc 22 3c
       -0.14268489 0.03986188 0.017315965 0.009947934
0000a0 0d ba 84 3d 8c 3a fb bc 07 92 7b 3d 25 22 7a 3e
       0.06480799 -0.030667566 0.06141856 0.24427088
0000b0 5d 78 ad bc b0 62 d7 3c 62 59 94 bd fd 66 37 be
       -0.021175558 0.026292175 -0.07243611 -0.1791038
0000c0 6b fb bb 3b 8e a3 0f 3e 60 9c 8f bd 55 39 a9 3d
       0.0057367585 0.14027235 -0.07012248 0.08262888
0000d0 04 84 c1 3c 6d db d2 bd 8c 9d 25 be bb 75 03 3e
       0.02362252 -0.102957584 -0.1617338 0.1283788
0000e0 1b 74 bd bd 44 91 19 3e 29 34 53 3e 67 dd cb 3d
       -0.09250661 0.1499682 0.20625366 0.099543385
0000f0 0d ee fb 3d 00 97 8d bb d1 e2 8f 3d c0 c0 36 be
       0.12301264 -0.004320979 0.07025684 -0.17846966
000100 83 8e 98 3d 5c b6 1b be 87 67 27 be a0 64 a5 bc
       0.07449057 -0.15206283 -0.16348086 -0.020189583
000110 88 4c 2e be 3d 9e 29 ba 76 6e 84 3d eb e2 00 bd
       -0.17021382 -0.0006470418 0.06466381 -0.031466406
000120 58 4a 86 bd fb 18 02 be a9 02 54 be 7e 9e 0b be
       -0.06557149 -0.12704842 -0.2070414 -0.13634679
000130 32 ef 84 be ae 35 4e bd a3 d9 00 3d 18 64 ab 3c
       -0.25963742 -0.05034416 0.031457555 0.020921752
000140 ee c2 f7 3d c5 a5 34 3d 21 41 07 be b5 eb 26 be
       0.12097727 0.044103403 -0.13208438 -0.16300853
000150 b8 a8 82 3d 94 de 3c 3c 2a 4c 9b bd 0b 5f 98 bd
       0.06379837 0.011527676 -0.075828865 -0.07440003
000160 5f 50 0b be b3 8e 26 3d ac b2 9c bd 30 34 03 3d
       -0.13604878 0.040663432 -0.076512665 0.03203219
000170 11 ca 67 be 21 45 f6 bd 2f 97 93 bb 6a b7 1f 3c
       -0.22635676 -0.12024904 -0.0045041065 0.009748319
000180 72 87 65 bc a4 74 4f bd 97 cd 65 bd fa 66 bc 3c
       -0.014009343 -0.050648347 -0.05610427 0.022998322
000190 f0 58 74 be 0f 45 24 3d 8f ec 95 bd 2f c7 85 bd
       -0.23862052 0.040104922 -0.073205106 -0.06532132
0001a0 79 65 35 3d dd 1a e6 bb ad 21 13 be 66 26 17 bd
       0.044286225 -0.0070222453 -0.14368315 -0.036901854
0001b0 f1 70 22 be f2 e1 59 bd a3 35 28 3e 4b f2 95 3d
       -0.15863396 -0.053193994 0.16426711 0.07321604
0001c0 dd 9e 58 bd 64 55 ad 3d 98 b6 86 3d 49 e2 66 3d
       -0.05288588 0.084635526 0.06577796 0.056368146
0001d0 70 4e 9f 3d 92 a3 ad be 8a 5d 03 bd 56 e3 83 be
       0.07778633 -0.33913857 -0.032071628 -0.2575938
0001e0 67 ae 85 be f4 86 e1 bd d7 b6 03 3e 04 f2 2b be
       -0.2610962 -0.110120684 0.12862717 -0.1679154
0001f0 d9 1f 49 3e 99 c1 4c bc 40 5e d9 bd ae 3a 2c be
       0.19641055 -0.012497329 -0.1061368 -0.1681926
000200 84 9e 6c 3d 4b 90 ab 3d 17 ac 1b be 32 d9 1d be
       0.05776836 0.08377131 -0.15202366 -0.15414885
000210 26 1c f1 3d c6 d4 a7 3d c3 6e fc ba bb 14 b1 be
       0.11772947 0.0819488 -0.0019259084 -0.3458613
000220 40 3d 83 3c cc 25 5d 3a 64 e0 1d 3d df 86 07 bc
       0.016020417 0.0008436113 0.038544074 -0.008271902
000230 2b d7 9a bd f6 ea 9e bd 93 03 bc 3d 38 c6 bf bd
       -0.07560571 -0.07759659 0.09180369 -0.09363979
000240 8e 91 00 3e 56 b4 2b 3c 8c 6b d3 bd f4 9f 60 3c
       0.12555525 0.010480007 -0.10323247 0.013710011
000250 74 dd a0 3d d8 b6 07 3e 2a 8b 56 be 36 8d e1 bc
       0.07854739 0.13253343 -0.20951524 -0.027533155
000260 11 30 4d 3d cf e3 32 be 1e 31 2d bd 28 42 01 bd
       0.050094668 -0.17469715 -0.04228317 -0.031557232
000270 5a d7 a8 bc 70 6a ea 3d c4 fe 14 be 03 04 88 3d
       -0.0206105 0.114460826 -0.1455031 0.0664139
000280 4e 68 4d 3d 86 51 16 be 56 48 83 bb 09 58 f9 3d
       0.0501483 -0.14679536 -0.004006426 0.121749945
000290 40 d8 0b be 03 97 fd bd ec d3 a9 bc 92 64 fa 3d
       -0.13656712 -0.12382319 -0.020730935 0.122262135
0002a0 67 a3 66 be 05 22 04 bd 42 ba af 3d 8c 3c 4f be
       -0.2252327 -0.032259006 0.08580448 -0.2023794
0002b0 2b ca e6 3d 51 70 aa bd c2 2a 26 3d f7 cc 34 3d
       0.11269029 -0.08322204 0.04056812 0.044140782
0002c0 3d a3 eb 3c 5c 8f d6 bd 40 d8 d9 bc 55 b6 ad bd
       0.028764362 -0.104765624 -0.026592374 -0.08482043
0002d0 51 cd 14 bd 40 56 31 bd 47 85 62 be ac 75 53 be
       -0.036328617 -0.043295145 -0.22121154 -0.20650357
0002e0 44 e7 f5 3d 5b 1d 85 3d 30 90 50 be f6 5a a8 3d
       0.12007001 0.0649974 -0.20367503 0.082204744
0002f0 19 c0 72 bd 47 cd 7a bd 2b 06 a0 bc 6e 41 00 bd
       -0.05926523 -0.061230924 -0.019534191 -0.0313124
000300 0d 5a dc 3a f3 ff 19 3d 93 a4 8b bd 6a 6a 31 be
       0.0016811505 0.037597608 -0.068184994 -0.1732575
000310 f1 5f 8c 3d 08 b6 f2 bc 1e 6f 32 3e 5e b1 22 be
       0.06854237 -0.029627815 0.174252 -0.15887973
000320 03 de bf bd 00 c8 88 bc 15 43 5d be 0e 98 a9 bd
       -0.09368517 -0.01669693 -0.21607621 -0.08280955
000330 91 79 fd 3d 41 fa fb 3d 53 36 e6 bc 82 b2 2a bc
       0.123767026 0.123035915 -0.028102076 -0.010418536
000340 03 d3 4f be 72 d3 8f bd ef b7 58 bd 67 93 3e bc
       -0.20295338 -0.07022752 -0.052909788 -0.011631823
000350 49 21 c7 3d d7 e0 de bd 67 62 87 3d e9 fb d4 bb
       0.097231455 -0.108827285 0.06610566 -0.0064997566
000360 5f 18 38 bd af af 69 3d 76 ee 7b 3d d7 48 7d ba
       -0.044945117 0.05705231 0.06150671 -0.0009662038
000370 4c e5 4f 3d 9d 21 0a be 14 6d ab bd ac 30 47 bd
       0.050755784 -0.13489385 -0.083704144 -0.0486304
000380 d4 fc b6 3d 0b 2d 3a be e7 78 85 be 26 6f b9 3d
       0.08934942 -0.18181245 -0.26068804 0.09054403
000390 b1 fd c5 3c 78 8b ee bd 42 44 05 be de fc 24 3b
       0.024168821 -0.11647695 -0.1301432 0.0025175135
0003a0 64 74 1f bc 99 d9 af bc 23 35 5d be 98 85 e9 bd
       -0.0097323395 -0.021466063 -0.21602301 -0.11402434
0003b0 f0 bc 3c be d9 1c 89 3d 17 f6 e8 bb 0b e7 bf 3c
       -0.18431449 0.066949554 -0.0071094143 0.0234256
0003c0 44 81 47 be 92 10 70 3c c3 59 6c 3d 1a 8b 12 be
       -0.19482905 0.014652388 0.05770279 -0.14310876
0003d0 5b 3a 25 bd 08 33 1c 3c 8f ca 38 be 85 7e 26 3e
       -0.040338855 0.009533651 -0.1804602 0.16259201
0003e0 cf 92 d5 bc 83 ca 94 3d b3 73 88 3c 9a 31 26 3d
       -0.02607098 0.072651885 0.016656732 0.040574647
0003f0 40 92 39 bd fa bd 1c be fa 99 ab bd ac 48 07 3e
       -0.04530549 -0.15306845 -0.08378978 0.13211316

2.weight f4 [256, 512]
000000 b4 78 d2 bd 07 a2 a4 3c 54 1c 1d 3d dd 9c 21 be
       -0.102769285 0.020096792 0.038357094 -0.15782495
000010 5c f0 aa bd 14 5b 26 bd 4e c9 80 bd 25 41 e1 3d
       -0.08346626 -0.040614203 -0.06288396 0.109987535
000020 c1 56 91 3e 3b 58 94 3c 29 38 b8 3c 5f bf a4 bc
       0.283865 0.018108478 0.022487717 -0.020110784
000030 41 1a 22 be a7 c2 d3 bd 8d db 99 3e 62 a6 cf bd
       -0.15830328 -0.10339861 0.30050316 -0.10139157
000040 09 ef b7 bd dd ff 53 3d 09 6a fa bc 04 17 3d bd
       -0.08981139 0.051757682 -0.03056814 -0.046164528
000050 15 ab 39 bc 0f cd f0 3d e8 e0 20 be ff 64 17 bd
       -0.011332293 0.11757862 -0.15710795 -0.03696155
000060 7b e2 c0 3d 2f 97 a1 3d 45 3f 07 be 64 bc 8e bd
       0.09418198 0.07890164 -0.13207729 -0.069695264
000070 c5 77 13 3e ec 8b 8d bc 3c 58 66 3e 46 77 86 bc
       0.14401157 -0.017278634 0.22494596 -0.016414296
000080 05 b8 90 bd 12 16 f2 3d 81 20 db 3d ce 5f 6e be
       -0.07066349 0.11820616 0.10699559 -0.23278734
000090 37 0b 89 3e c8 90 a6 be ab 44 ab bd 7a f6 5a 3d
       0.2676637 -0.32532334 -0.08362707 0.053457715
0000a0 cf 20 d7 bd 78 ef c6 3d 08 d7 37 be 8c 0a 3d be
       -0.105043046 0.09713644 -0.17953122 -0.18461055
0000b0 6f a1 1e bd 22 9e 5c bd 1d 9e b7 bd 80 05 3e 3e
       -0.038728174 -0.053861745 -0.089657046 0.18556786
0000c0 ca cd 19 be ee c4 87 3c 1a b1 11 3e 19 11 05 3c
       -0.15019909 0.016573396 0.14227715 0.008121752
0000d0 24 8e f5 bd 71 1c a8 bd c3 d5 04 be 06 0b fd bd
       -0.11990002 -0.0820855 -0.12972169 -0.12355618
0000e0 0b 03 ad 3e 03 ca 83 bd 09 59 91 3b dc 0e 80 3d
       0.33791384 -0.06435015 0.0044356626 0.06252834
0000f0 cf 2b 94 3d 07 6d ce 3d 53 dc 2e be 4c 06 05 be
       0.07234918 0.10079389 -0.17076235 -0.12990683
000100 98 39 a0 3d 01 d8 90 3c ff b9 c3 bd 16 5e 08 be
       0.07823485 0.017681124 -0.0955696 -0.13317141
000110 d6 93 2b 3e 03 c3 a5 3d 1a 8a 7e be 46 1c 0a be
       0.16755614 0.08093836 -0.24857369 -0.13487348
000120 c6 28 0c bd 6d f8 b7 3d 3b d5 3f 3e 96 79 cf 3c
       -0.034218572 0.0898293 0.18733685 0.025326531
000130 28 5f 13 3e 38 03 23 be 8f 3b 2a 3d 98 30 12 be
       0.14391768 -0.15919197 0.041560706 -0.1427635
000140 48 60 d5 bd 27 2b 3c bd c8 7b 8c 3c 0e 52 1d 3e
       -0.10418755 -0.04593959 0.017148867 0.15363333
000150 82 17 32 3d 2d 6a 12 3e f5 d9 51 bb c6 78 dc 3d
       0.04347945 0.14298315 -0.0032020782 0.10765223
000160 96 ef 3b 3e 3e ae 91 bc c9 ab 08 be f5 8a 7c 3c
       0.18353114 -0.01778328 -0.13346781 0.015413989
000170 49 27 be 3d b4 ac ff bc 60 81 f5 3d 3f 93 d9 bc
       0.09284837 -0.031210281 0.11987567 -0.02655947
000180 90 7a 0c 3e 94 77 c9 3b fa 63 80 bd 32 b6 1c be
       0.13718629 0.006148288 -0.06269069 -0.15303877
000190 a0 9f 22 3d 19 dd 3c be c1 92 56 bc 5c ab 33 bd
       0.03970301 -0.18443717 -0.013096512 -0.043864593
0001a0 3a c0 21 be 31 50 12 be 30 5b 4d 3e c0 fe af 3c
       -0.15795985 -0.14288403 0.20054317 0.021483779
0001b0 0b d3 70 bd d3 e5 11 be f9 b7 42 3d d8 26 88 3c
       -0.058795016 -0.14247827 0.04753873 0.016620085
0001c0 b3 df e9 3d f5 0d 7c 3d 06 0a 51 bd b6 4c ac bd
       0.1141962 0.061536748 -0.05103495 -0.08413069
0001d0 b4 28 14 3e 40 f7 0a 3e 2c b5 62 3e 1c f5 cd 3d
       0.14468652 0.13570881 0.22139424 0.100565165
0001e0 89 b2 00 bd 77 80 9b 3d 2b 6b 9c 3b 2e 3e d1 3d
       -0.031420264 0.07592862 0.0047735176 0.10216938
0001f0 a6 2e f8 3d 86 dd 32 3d c9 f7 d0 3d f1 d0 cf 3d
       0.121182725 0.043668292 0.10203511 0.10147274
000200 07 31 8e be 4d 62 be 3d a9 4b 1c 3d e0 cf 0a 3d
       -0.2777178 0.09296093 0.038158093 0.03388965
000210 3f e6 bb bc 9a 8a 69 be 07 5c f9 3d ac ae 8f 3e
       -0.022936938 -0.22806779 0.12175756 0.28062952
000220 00 e1 b5 3c b2 3d 2f be fa 74 8b bd 4f 11 10 be
       0.022202015 -0.17113379 -0.06809421 -0.14069103
000230 16 5d eb bd e4 de ac 3d 96 4e 98 3d a8 5b 96 3d
       -0.11492364 0.084409505 0.07436864 0.07341701
000240 20 5c 4d be fa 14 07 3d 68 1c 26 3e 7a f4 62 3b
       -0.20054674 0.03297899 0.16221774 0.0034630583
000250 5f b7 c1 bc af ea 44 3d d8 1e fe 3d 51 35 35 be
       -0.023647008 0.048075374 0.12408227 -0.1769612
000260 a8 1b 01 be cb ba c2 bd 8a 73 a1 3d a0 64 9a bd
       -0.12608206 -0.09508284 0.078833655 -0.07538724
000270 9c e8 4d bd 4f 5f 01 bd a4 f1 d0 3d 98 64 24 3e
       -0.05027066 -0.031585034 0.10202339 0.16053998
000280 fc 55 8b ba 75 f9 5e 3e 04 5a 8b 3d cd 46 d1 bd
       -0.0010630484 0.21774848 0.068042785 -0.10218582
000290 45 d7 3e bd da 79 23 3e 0e cb c5 bd e1 dc 31 bd
       -0.046592016 0.15964451 -0.0965787 -0.043423537
0002a0 07 0c ea 3b 8a 31 dd 3d 23 de 41 3d cd 98 5b 3d
       0.007142547 0.108004645 0.047330987 0.05361252
0002b0 20 3c 60 3d e5 56 fc bd f4 ec 4b 3e b2 9e 87 be
       0.05474484 -0.12321261 0.19914609 -0.26488262
0002c0 f2 b6 43 3c 44 51 0e 3e 4f 6d b1 bd 44 78 b8 3c
       0.011945473 0.13898188 -0.08663427 0.022518285
0002d0 54 97 49 be 51 dd 7c bc 9a ad 2a 3d 55 c4 1b 3d
       -0.19686633 -0.015433625 0.041669466 0.038029034
0002e0 78 2e 8e bd ad b3 96 be d5 64 34 3e 9f fc 66 3d
       -0.06942457 -0.29433957 0.1761659 0.056393262
0002f0 11 3a a5 bd 87 d4 11 bb bc bf 44 be d9 a6 bc 3c
       -0.08067716 -0.002225192 -0.19213766 0.023028778
000300 1f 63 7b 3e a3 22 ca bd 7b 91 cf 3d f2 07 0b bc
       0.2454953 -0.09869888 0.1013517 -0.008485781
000310 09 fd a8 bb 3a 63 42 be 00 b1 94 3c b2 51 3f bd
       -0.0051571173 -0.18983164 0.018150806 -0.04670877
000320 80 a0 d2 3d bc d7 2c 3e 02 16 11 3d 62 6f 27 bc
       0.10284519 0.16879171 0.03542138 -0.010219427
000330 a0 71 16 3a 19 b7 26 be 48 8d be bd a3 08 6e bd
       0.00057389773 -0.16280784 -0.09304291 -0.058113705
000340 07 1d 14 3e d0 82 83 3d df 9f df 3d cc 8a 27 be
       0.14464198 0.06421435 0.10919165 -0.1636154
000350 e8 b0 f1 3d d4 2f d9 bb 6d 52 a7 be b8 c4 df 3c
       0.1180132 -0.006628016 -0.32680073 0.027315482
000360 dc 5d b6 bd 98 85 73 3d a3 db fe 3c 19 6d 0a 3d
       -0.08904621 0.059453577 0.03111059 0.03379545
000370 dc 7a 88 bd b7 33 d4 3d 96 86 7e bd 18 46 04 be
       -0.066640586 0.10361426 -0.06214007 -0.12917364
000380 03 92 eb bc 26 c7 3f 3e 2c d6 7b bb 90 95 e9 3c
       -0.028756147 0.18728313 -0.0038427217 0.0285137
000390 d1 a8 9c be bc ba 74 3c ef c8 b9 3d df c0 d4 3d
       -0.30597547 0.014937099 0.09071528 0.1038835
0003a0 f2 92 66 bc 4d e4 a3 bd 34 5c 71 3c c5 cc 3b 3d
       -0.01407312 -0.08002529 0.014731456 0.04584958
0003b0 0f fa 8e 3d fa 54 43 3e 76 00 bd 3e 1a a3 9e bd
       0.06981289 0.19075385 0.36914414 -0.07745953
0003c0 5b 48 5e be 0e 5f 49 3d 75 c8 69 be b3 b1 f3 3d
       -0.21707289 0.049162917 -0.22830375 0.11899128
0003d0 5c 62 37 3e ff 09 0c be 42 63 e6 3d 4b 4d 21 be
       0.17908615 -0.13675688 0.11249401 -0.15752141
0003e0 26 81 f1 bd c1 f6 49 bd ba a4 e4 3d 6b c7 25 be
       -0.11792211 -0.04930759 0.111642316 -0.16189353
0003f0 3b 86 b2 bc e9 74 18 3c 1b 87 2b 3e 1c 68 97 3d
       -0.021792522 0.009305217 0.16750757 0.07392904

2.bias f4 [256]
000000 ac bd 88 be 8e 65 35 be 14 f3 98 be f2 a3 0b be
       -0.26707208 -0.17714521 -0.29872954 -0.13636759
000010 69 f6 5c bd 8c 1c 9a bd c8 d0 fc bd 06 1a 0c be
       -0.053945933 -0.07524976 -0.12344509 -0.13681802
000020 f2 62 25 be 49 42 b0 bd 58 52 3d be 13 c6 9b be
       -0.16151026 -0.08606393 -0.18488443 -0.30424556
000030 ce 2c 01 be 10 46 c4 bd b3 14 c6 bd 03 12 83 be
       -0.12614748 -0.09583676 -0.09671917 -0.2559968
000040 37 3d f6 bd 2d 5b d8 bc 53 6a 63 be 30 1d c1 bb
       -0.120233946 -0.026410664 -0.22208528 -0.005893372
000050 9d 79 eb bd 76 1b 28 be b7 3b 8d bd 1c fe 32 be
       -0.11497805 -0.16416726 -0.06896155 -0.17479748
000060 be 6f 05 be 3d 54 c9 bd 84 8d 4e be 7d d1 4a be
       -0.13030908 -0.0983052 -0.20171171 -0.19806476
000070 fc ec 01 be 1d 1e 3b 3d 83 02 14 be 3b ad a8 bd
       -0.12688059 0.045683015 -0.14454083 -0.08236166
000080 ca a2 8b be 91 37 15 be 19 e8 d8 bd bf 97 df bd
       -0.27272636 -0.14571978 -0.10591144 -0.10917615
000090 61 14 53 bd b7 1d de bd 4d 92 21 be c8 0f c1 bd
       -0.051533107 -0.108455114 -0.15778466 -0.09426838
0000a0 5c 0b e2 bd f9 47 02 3b 0c f9 17 be ca f6 d4 bd
       -0.11037323 0.0019879325 -0.14841098 -0.10398634
0000b0 bb 9b bc bd 3a d6 94 bc 65 22 18 be aa 23 72 bd
       -0.09209391 -0.018168557 -0.1485687 -0.059116043
0000c0 8f 95 1a 3d 43 a3 cd bd 95 10 f1 bd 11 c5 17 be
       0.037740286 -0.10040905 -0.11770741 -0.14821269
0000d0 c9 25 da bd f6 f1 75 be fc e9 16 be 6d 32 06 be
       -0.10651738 -0.24018082 -0.14737695 -0.13105173
0000e0 04 3c f3 bd 1e 4d 78 bd 3a ee ba bc 19 53 e8 bb
       -0.118766814 -0.06062042 -0.022818673 -0.007089984
0000f0 1a ab 0c 3b 57 f1 91 3d e4 a2 ce bd 15 25 8d bd
       0.002146429 0.0712611 -0.10089663 -0.068918385
000100 62 f3 07 be 77 7e 8e bd 07 90 21 3d 0f 10 e2 bd
       -0.13276437 -0.06957715 0.039443996 -0.11038219
000110 3d 20 04 ba fa 79 6d be c7 88 9c bd 03 f0 83 3d
       -0.0005040204 -0.23191062 -0.07643276 0.06442263
000120 83 cc 8c bd a4 3d 0d be 17 d3 1f be f7 91 d2 bd
       -0.06874945 -0.13793045 -0.15607868 -0.10281747
000130 9a 02 02 bd f1 df 08 be 74 4c 87 be 67 6a ad bc
       -0.031740762 -0.13366677 -0.26425517 -0.0211689
000140 f7 2d 0e be 45 84 9d bd 8e 84 f8 bd 1b 14 3f 3d
       -0.13884722 -0.07691244 -0.12134658 0.046650033
000150 57 9b e6 be 96 5b 82 be e9 5c 58 bd 9a 0a 1e bd
       -0.4504039 -0.254605 -0.05282298 -0.03858433
000160 26 cd 60 be 8d af 3d bc 4a 7a 78 bd c5 0c cd bd
       -0.21953258 -0.011577499 -0.0606635 -0.10012201
000170 4d a4 f5 bd 54 e8 3d be 52 05 39 be e5 a2 6d bd
       -0.119942285 -0.18545657 -0.18068436 -0.058016676
000180 ad 34 05 be e8 bc 22 be ff c2 20 be 94 94 ba bd
       -0.13008375 -0.15892375 -0.15699385 -0.0911037
000190 c1 20 69 be 1f a1 1f be a7 10 9f bd 52 8b 81 be
       -0.22766401 -0.15588807 -0.07766848 -0.25301605
0001a0 c1 3b 7e bc 76 9b 10 be 2c 8e 20 bd a0 c1 72 bd
       -0.015517176 -0.14121804 -0.039198086 -0.059266686
0001b0 01 dc 4c be ca 74 07 be 92 bb 28 be 8d dc 7a be
       -0.200058 -0.13228145 -0.16477802 -0.24498196
0001c0 26 67 92 be be 09 a3 be 69 f0 f9 3b 91 75 46 be
       -0.2859432 -0.3184337 0.007627536 -0.19380786
0001d0 b6 82 c9 bc 47 28 29 be 25 2a 15 bd 45 76 79 bd
       -0.02459846 -0.16519271 -0.036417145 -0.060903806
0001e0 64 5d 5f be b6 28 ce bd 1f 51 ab bd 2b e9 29 be
       -0.2181297 -0.10066359 -0.08365082 -0.16592853
0001f0 b0 ce dc bd 0e 5e 31 bd aa a9 5a be ae 13 c6 bd
       -0.1078161 -0.04330259 -0.21353784 -0.09671722
000200 d2 7e e0 bd 16 2a 1f be b3 56 f9 3c ac 15 63 be
       -0.10961689 -0.15543398 0.03043685 -0.22176236
000210 04 78 73 be 30 4c 1b bd da 01 34 be 50 98 9c bd
       -0.23776251 -0.037914455 -0.17578831 -0.07646239
000220 ab 0f 3b bd a2 a8 e2 bd 7b a1 09 be 72 56 cf bc
       -0.04566924 -0.110673204 -0.13440506 -0.025309775
000230 27 1d 5f be bb e2 87 be 10 43 51 be 83 5e b0 bd
       -0.21788464 -0.2654017 -0.20435739 -0.08611777
000240 e3 c3 84 3c fc e9 35 bd ee dc 20 be b9 3d f8 bd
       0.016206687 -0.044412598 -0.15709278 -0.12121148
000250 51 6d fd 3c 9f 0e 27 be 06 d5 a5 bd c4 0c 48 be
       0.030935915 -0.16314171 -0.080972716 -0.1953612
000260 68 fc c6 be 07 c9 b5 be b7 e4 3d be 58 6a 91 bd
       -0.38864446 -0.35504934 -0.18544279 -0.071003616
000270 63 b4 81 bd 96 fb 1b be af 32 87 bd 1b 4a e5 bd
       -0.06333234 -0.15232691 -0.06601464 -0.11195775
000280 13 64 92 be 7c 24 a8 bd 8e ce 92 3c 2d c0 50 be
       -0.28591976 -0.08210084 0.017920759 -0.20385809
000290 ff 49 6f bd 39 92 6b 3a af 61 17 be 74 b2 c8 bc
       -0.058420178 0.00089863274 -0.14783357 -0.024499156
0002a0 2c 46 37 be 10 e0 cb be 19 00 15 bd 61 ea 41 3d
       -0.17897862 -0.39819384 -0.036377046 0.04734266
0002b0 8d 7a a3 bd 88 f0 1a be 4b 1d 0f be a3 06 4d be
       -0.07982359 -0.15130818 -0.13976018 -0.20022063
0002c0 6f 75 1d be 23 e1 82 bd 09 f1 33 be be 87 35 be
       -0.15376829 -0.06390598 -0.17572416 -0.17727563
0002d0 7b 24 d3 be 7c 94 19 be 7c 8c 84 bd fb fa 8f be
       -0.4123877 -0.14998049 -0.06472108 -0.2812117
0002e0 3a 14 67 be 97 77 c7 be bf 6b 22 be 76 f1 f8 bd
       -0.2256631 -0.38958427 -0.15861414 -0.1215543
0002f0 9c 6a 91 be 3d a4 ec bd 74 66 1e be 0f 85 c5 bd
       -0.2840165 -0.115547635 -0.1546877 -0.096445195
000300 b5 e8 81 bc 0b d6 a4 bd be 59 ee bd 11 87 1c be
       -0.015858034 -0.08048638 -0.11638211 -0.15285899
000310 54 9c ac bd 8d fa e6 bd 3d 87 d7 bd 88 64 b1 bd
       -0.08428255 -0.112782575 -0.105238415 -0.08661753
000320 9a 09 a0 be 59 aa 65 bd 6b 10 cc bc c7 c1 cd bc
       -0.31257325 -0.05607066 -0.024910172 -0.025116814
000330 07 17 ca be 55 35 01 be 0c e5 44 be 7c 29 7d be
       -0.39470693 -0.12618001 -0.19228 -0.24722856
000340 06 11 06 be 9a f9 aa bd 46 7d 35 be 98 3b 00 be
       -0.13092431 -0.08348389 -0.1772357 -0.12522733
000350 26 08 9d be 1b 73 1f be 2f db 98 be 96 36 20 be
       -0.3067028 -0.15571253 -0.29854724 -0.15645823
000360 a0 c3 e6 be 9f 82 3e be 91 da ad be 82 58 0e be
       -0.45071125 -0.18604515 -0.33955815 -0.1390095
000370 de 2d 28 bd 3e ba 3d be ea 27 2b be f9 46 5e be
       -0.041059367 -0.18528077 -0.16714445 -0.21706761
000380 05 57 11 be 36 72 3e be 68 01 d9 bd 51 e0 c1 bc
       -0.14193352 -0.18598256 -0.10595971 -0.023666533
000390 f9 1a 2f bd e8 6b f5 bd ae 72 1c be 45 c5 b3 bd
       -0.042750333 -0.11983472 -0.15278122 -0.087778606
0003a0 b5 5a 68 be 20 61 9f bd 37 8e 9b be a8 ec 30 be
       -0.22690852 -0.07782197 -0.3038194 -0.17277777
0003b0 ce e6 6b bd 98 7d 14 be 7c 38 03 be cf 5d 1f be
       -0.05759316 -0.14501035 -0.12814516 -0.15563129
0003c0 73 26 fb bd be ab 27 bd 5d 12 08 be 16 d7 ec bc
       -0.12263193 -0.04093527 -0.13288255 -0.028911155
0003d0 b7 05 ac bc 24 fe ff bd b1 08 7e be 81 e7 64 bc
       -0.020998819 -0.12499645 -0.24808003 -0.01397121
0003e0 6f fd ae bb e9 2c 45 bc 13 55 87 be 3d 6f 0a be
       -0.00534027 -0.012034633 -0.26432094 -0.13518997
0003f0 28 cd 4c be cc fc 0a be f7 45 0f be 23 fc 75 bd
       -0.20000136 -0.13572997 -0.13991533 -0.06005491

4.weight f4 [128, 256]
000000 dd 29 c4 3d 0c 9e 57 bd cd 54 3d bd 44 86 df bc
       0.09578297 -0.05264096 -0.04622345 -0.027285703
000010 cd ba df bd 6c 30 4b 3d 42 07 80 3c 76 e0 9f 3d
       -0.10924301 0.049606726 0.01562846 0.078064844
000020 03 c8 f5 3b 62 c5 a2 bd 98 c5 84 bc 10 a7 29 bd
       0.00750065 -0.07947804 -0.016207501 -0.04141909
000030 cb 0f e7 bd ab 76 3f 3d 94 7a 16 3c 32 d4 22 3d
       -0.11282309 0.04674403 0.009184498 0.039753146
000040 45 90 2a 3d 70 af 15 3c c4 d1 f1 3c d5 79 85 bc
       0.041641492 0.009136066 0.02951897 -0.016293446
000050 d9 aa 05 3d dc dd 13 be 2f d3 c8 3d 6b 0f f2 bd
       0.032633636 -0.14440101 0.09805905 -0.11819347
000060 b2 d0 80 3d 03 95 e4 3d 85 3f 63 3d 8c 92 0f 3c
       0.062898055 0.11161234 0.0554805 0.008762967
000070 49 86 1e be 05 0b 16 bd 17 bc 9e 3d a9 29 91 3c
       -0.15480913 -0.036631603 0.07750719 0.01772006
000080 d5 c5 e9 bd ed a5 aa 3d 77 45 30 3e 5a db c6 3c
       -0.114146866 0.08332429 0.17213999 0.024274517
000090 c8 07 ba 3d 13 28 a3 3d 12 d5 13 be b9 b4 af bd
       0.090835154 0.07966628 -0.14436749 -0.08579392
0000a0 37 20 d9 bd b2 2f 23 bc 62 6b 89 3d 32 04 c5 bd
       -0.106018476 -0.009960102 0.06709935 -0.09619941
0000b0 d1 8f 80 3d cc 06 20 bd f4 38 66 bc 59 42 7c 3d
       0.06277431 -0.039068982 -0.014051665 0.06158671
0000c0 08 d7 a8 b8 f4 84 ec bd 8a 02 d6 bd da b8 83 3d
       -8.050917e-05 -0.11548796 -0.10449703 0.06431742
0000d0 36 45 3c 3d 61 13 22 3d 2f bb 0a 3e e7 54 d8 bd
       0.045964442 0.039569262 0.13547967 -0.10563069
0000e0 57 97 55 be 30 5b 0a be 04 02 5f 3d 75 df 39 3e
       -0.20858513 -0.13511348 0.05444528 0.18151648
0000f0 e4 09 c6 bd 4f cb 84 bd ca 25 ed bc 1e 2a ab bd
       -0.09669855 -0.064840905 -0.028948683 -0.083576426
000100 89 d0 b5 3c 12 e6 54 bc 11 a4 95 bc 5d 81 f0 3c
       0.022194164 -0.012994306 -0.01826671 0.02935856
000110 d5 70 bb 3c 07 2f a2 bd 25 b1 08 3e 69 9b 1d be
       0.022880951 -0.07919126 0.13348825 -0.15391316
000120 65 65 cc bd 78 56 2f bd 4b 7d df bd cf ac ba 3a
       -0.09980277 -0.042807072 -0.109125696 0.0014242175
000130 38 ec 6f 3d 27 a1 5a bd c0 71 34 3e bd bb 14 be
       0.058574885 -0.053376343 0.17621517 -0.14524741
000140 84 50 c1 bd 75 5e 03 3e b1 48 d9 3d 08 95 e3 3d
       -0.09439185 0.12829001 0.10609568 0.1111241
000150 66 54 6b bc 13 1c 90 3d d7 41 87 bd e1 31 56 be
       -0.014363384 0.07036605 -0.06604355 -0.20917465
000160 05 b1 e5 3d 3e db 9c bd 2e ac f8 3d 5b e2 85 bd
       0.112154044 -0.07659005 0.12142216 -0.065373145
000170 16 6d 55 bb 41 ea 50 bc b3 c9 b7 3d 75 3a 5e 3d
       -0.003256624 -0.012751163 0.08974018 0.054254968
000180 6c e4 d3 bc 7b f0 87 bd d0 a8 fd bc 2e f9 9c 3d
       -0.025865756 -0.06637665 -0.030964285 0.07664715
000190 3c 08 e8 bd 96 e6 0c be 77 12 53 bd 95 2a 8f 3d
       -0.113296956 -0.13759837 -0.05153128 0.06990544
0001a0 36 83 01 be a0 17 1a be d6 3d b4 bc 9b c8 00 bd
       -0.12647709 -0.15048075 -0.022002142 -0.031441312
0001b0 59 a1 b5 bc 8c c1 0b 3d 95 7c 90 3d 90 28 2c 3c
       -0.022171663 0.034120128 0.07055012 0.010507718
0001c0 20 6a 14 be 09 7f e0 bd fb 8a bb be e1 4e 78 bd
       -0.14493608 -0.1096173 -0.3662947 -0.0606221
0001d0 c7 e6 e1 bd 98 22 eb bc 6a 3d 7c 3c b9 f4 e2 3b
       -0.110303454 -0.028703019 0.015395502 0.006926146
0001e0 00 04 1c bc 94 4b 3b 3d 17 3a 13 be 92 e3 9b bc
       -0.009522438 0.045726374 -0.14377628 -0.019029412
0001f0 7a f9 74 bc 6a 20 13 3d b5 ed 37 be 14 0a 4c bb
       -0.014952058 0.035919584 -0.17961772 -0.0031133937
000200 89 a9 b7 bd a3 30 38 bc 75 66 fb 3d 0e ac 00 3e
       -0.08967883 -0.011242065 0.122754015 0.12565634
000210 5c 8e 28 3d 2c d2 c9 bd ae 43 9c 3d 40 f2 7f 3d
       0.04115139 -0.0985454 0.076300964 0.062486887
000220 8a dd d1 3d fb 77 f4 3d 25 4a 99 bd 51 bb ca 3d
       0.10247333 0.11936947 -0.07484845 0.09899009
000230 85 7e 70 bd 32 a7 42 3d b6 de eb 3d 51 4f 9e bd
       -0.05871441 0.04752273 0.11517088 -0.07729972
000240 2f c6 10 be e4 d8 46 bd 4b 4b b5 bd 23 e1 52 3d
       -0.14138101 -0.048546687 -0.088522516 0.05148424
000250 2d 28 ea bc f5 df c8 3c ac 6a 18 be d2 7a 95 bd
       -0.02858361 0.024520854 -0.14884442 -0.07298817
000260 c4 44 41 3e af 19 e7 bc 84 21 9d 3d cc 1b 28 3e
       0.18873888 -0.02821049 0.07672408 0.16416854
000270 41 59 b7 bc a2 6e 7d bd a1 3a 63 3c ef ac 04 bb
       -0.022381427 -0.061873086 0.013868959 -0.0020244678
000280 34 60 cf bc f0 8a 50 3d 07 30 d9 bd 01 2c 09 bd
       -0.025314428 0.05091375 -0.106048636 -0.03348923
000290 fb 1f 28 3d 7d 4c e5 bd 3b e0 95 bd 32 89 a1 3c
       0.041046124 -0.111962296 -0.07318159 0.01971874
0002a0 ca 9f 0d bd 8b 32 a0 bd a7 2b d4 3c 9b 7c 18 bd
       -0.034576215 -0.0782214 0.025899721 -0.037228208
0002b0 22 96 2f 3d 43 b0 95 3d 40 1a 5a 3c e7 55 49 3e
       0.042867787 0.0730901 0.013311923 0.19661675
0002c0 db 28 01 3d 2e 60 ca 3d 7a a2 1e 3d c4 eb 01 3e
       0.031533103 0.09881626 0.03872917 0.12687594
0002d0 30 4c 0c bd 97 c1 d3 bc 8b 34 99 3d b2 de 88 3d
       -0.034252346 -0.025849147 0.07480725 0.06683101
0002e0 b5 01 bd 3c c6 1d c6 3d 51 9b 7b 3d bf 55 39 bd
       0.023072103 0.096736476 0.06142742 -0.04524779
0002f0 d8 f5 8f 3e b5 5d 13 3e 59 83 3f bb 99 f8 bd bc
       0.2811725 0.14391215 -0.0029222576 -0.02318983
000300 bc 43 f1 3c be 47 ca 3c e6 f4 aa bd c8 45 03 be
       0.029451244 0.024692412 -0.08347492 -0.12819588
000310 f4 24 90 3c 30 8f c3 bc 18 3e 05 3d b3 6b 5c 3e
       0.017595746 -0.023871988 0.03252992 0.21525459
000320 ac e4 84 bd 40 86 96 3d dc b5 1a be 68 09 07 be
       -0.06488928 0.07349825 -0.15108436 -0.13187182
000330 40 3a 82 bd c9 a2 fa bd 8c ac f1 3c b9 8b e5 3d
       -0.063587666 -0.1223808 0.029501222 0.112082906
000340 c6 2e ae bd 21 ad 0a be 78 c1 3a bc 4e f6 84 bd
       -0.08505015 -0.13542606 -0.011398666 -0.064922914
000350 46 d3 59 bd 78 82 84 bd 91 9a 19 bc d0 f2 cb 3d
       -0.05318 -0.064701974 -0.00937523 0.09958422
000360 45 3f ff 3b 43 e7 2e 3c cb 0c 26 3e 59 98 86 3d
       0.0077895247 0.010675254 0.16215818 0.06572027
000370 fc 7a 0a 3e 1e 94 85 3d b1 02 e7 bd a5 b9 f5 3d
       0.13523477 0.06522392 -0.1127981 0.119982995
000380 31 cf 3c 3c e8 43 8c bc d2 77 c5 bd e5 51 3e bd
       0.011524008 -0.017122224 -0.096419945 -0.04646482
000390 cf ce 9f bd 26 1c 9e 3c 64 6b de bc fe 5e 00 bd
       -0.078031175 0.019300532 -0.027150817 -0.03134059
0003a0 d5 53 b4 bc 84 73 78 bd c2 85 b5 3c f6 a9 e6 3d
       -0.02201263 -0.06065704 0.022158507 0.11262886
0003b0 eb a0 de 3d f7 bd 66 3d dc 9d f6 3c 3b be c6 3d
       0.108705364 0.05633351 0.03010457 0.09704252
0003c0 2d a4 ee bc 02 fd 1d bd 9e 7e 21 3e f3 c2 b8 bd
       -0.02913102 -0.038571365 0.15770957 -0.090215586
0003d0 c6 ff 04 3e 68 3c 06 3c dd b8 8c 3d 37 94 8b 3d
       0.12988195 0.008193113 0.068711974 0.06815379
0003e0 33 83 5e bd ab 9c ef 3c b2 05 21 be 6e a6 47 3d
       -0.05432434 0.02924951 -0.15724829 0.048742704
0003f0 d7 65 b0 3c 58 18 5b 3d 55 11 2e bd cf 9a 00 be
       0.021532936 0.053490013 -0.042496998 -0.12559055

4.bias f4 [128]
000000 ae d5 c3 bd 3c 89 46 bd e8 7e 8a be 9c ff 92 be
       -0.095622405 -0.04847072 -0.27049947 -0.2871064
000010 a5 d1 de bd 0f 2d 97 bd 7d c4 3e be f0 be 25 be
       -0.1087983 -0.07381641 -0.18629642 -0.16186118
000020 f7 d2 dd bb 1f 3b 92 bd c7 e3 b9 bd 8b 56 d6 bd
       -0.0067695337 -0.07140183 -0.09076648 -0.104657255
000030 c8 17 58 bc 21 08 28 be 28 01 62 be d7 de 36 be
       -0.013189264 -0.16409351 -0.22070754 -0.17858444
000040 6a c0 0c be 19 e0 1d be 78 74 23 be 0b 75 05 be
       -0.13745275 -0.15417518 -0.15962398 -0.1303293
000050 38 0c db 3c 96 96 d8 bd 75 5b b6 bd 52 9a 2e 3c
       0.026739225 -0.10575597 -0.08904163 0.01065691
000060 49 06 87 bd 03 45 a9 bd 07 ff fb bb 6d 74 62 3d
       -0.06592996 -0.08265116 -0.0076903137 0.055286814
000070 60 d0 dd bd 11 6b 0b bd 8f ef 89 be c4 a3 e9 bd
       -0.1083076 -0.034037653 -0.2694058 -0.11408189
000080 31 e2 f4 bd e4 e4 cf bd 0f 3e 74 be 7e 2d 26 be
       -0.11957205 -0.10151079 -0.23851798 -0.16228291
000090 9f b0 cf bd 1f 0a a2 bc 55 ac b7 bb 5b f5 d3 bc
       -0.1014111 -0.019780217 -0.0056052604 -0.02587383
0000a0 bd d5 65 bd 63 8b 14 be 5d a6 6b be d7 b9 0b bd
       -0.05611204 -0.14506297 -0.23012681 -0.034112778
0000b0 a4 5c 46 be 4e 1e 67 be fb 36 4b be 0f 00 56 be
       -0.19371277 -0.22570154 -0.19845192 -0.2089846
0000c0 89 01 ce bd f4 70 bf bd 74 51 71 bc 0c 0e 20 be
       -0.100588866 -0.09347716 -0.014728893 -0.15630358
0000d0 e3 9b fa bd b4 63 84 bd e0 67 f1 3b 77 b2 b9 bd
       -0.12236764 -0.06464329 0.007367119 -0.090672426
0000e0 4a 03 b5 bd c2 0e c1 bd 41 7e a5 bd 8a c3 94 be
       -0.08838518 -0.09426643 -0.08080722 -0.29055434
0000f0 c8 f1 02 bd d3 b0 9e bd 83 bf 01 be fc f1 91 be
       -0.03196886 -0.0774857 -0.12670712 -0.28504932
000100 a1 fb 1c be b3 b4 38 be 78 b2 53 bc 66 39 97 bd
       -0.15330364 -0.18037681 -0.012920968 -0.07383995
000110 a2 1b b5 bd 08 36 b6 bd b7 6f 1f be 9a a9 15 be
       -0.08843161 -0.088970244 -0.1556996 -0.14615479
000120 03 79 e0 bd 3d ba 3e 3c 41 c8 47 be 9b 41 29 be
       -0.10960581 0.011641082 -0.19509985 -0.16528933
000130 a8 c7 cf bd 55 92 1a be c7 1d 9e bd 50 3c ca 3c
       -0.10145503 -0.15094884 -0.07720523 0.024686962
000140 cc cc 0d be f7 47 94 be 60 7f a3 bd bf 0e dc bd
       -0.13847655 -0.28961155 -0.07983279 -0.10745
000150 10 36 51 bd f7 74 65 be 80 be 6b bd 4d 94 1f bd
       -0.05107695 -0.224079 -0.05755472 -0.03895979
000160 23 8e ef bd f8 8e 29 be 41 43 c8 bd fb 73 3b bd
       -0.11697032 -0.16558444 -0.09778453 -0.045764904
000170 b2 2c b3 bd 6d 26 87 bd 35 04 32 bd 56 12 00 be
       -0.08748759 -0.06599126 -0.043461043 -0.12506995
000180 29 ef a1 bd 60 e8 c5 bd 60 51 08 3b 10 79 ce bd
       -0.07906944 -0.09663463 0.0020800456 -0.100816846
000190 6b f6 13 be 97 2e 43 be 21 c8 7b be bb 4e 4d bd
       -0.1444947 -0.19060741 -0.24588062 -0.05012391
0001a0 a1 08 f9 bd f9 a9 53 bd 60 b7 28 be 06 51 15 be
       -0.12159849 -0.05167577 -0.16476202 -0.14581689
0001b0 c4 17 f1 bc ef af 5c 3c e7 10 3c be 6a a7 de bd
       -0.029430278 0.01346968 -0.18365823 -0.108717754
0001c0 7a df 24 be 97 80 36 be 7f ad 8b bd 08 1f 8c bd
       -0.16100875 -0.1782249 -0.06820201 -0.06841856
0001d0 37 50 15 be a7 e9 2c be 83 b8 05 be e0 fc 6b be
       -0.14581381 -0.16886006 -0.13058667 -0.23045683
0001e0 2f f1 82 bd 9f af c7 3a dc 72 07 be 3e 77 7c bd
       -0.06393658 0.0015234834 -0.13227409 -0.061637156
0001f0 81 b6 2e be ea 6f a8 be de 99 30 be 41 d5 82 bd
       -0.17061807 -0.32897884 -0.17246196 -0.06388331

6.weight f4 [12, 128]
000000 d2 86 a2 3b 9c 2d 5c 3d 61 75 6b 3d 65 48 84 bc
       0.0049599195 0.053754434 0.057484988 -0.016147802
000010 61 9f 9f 3b e1 90 35 3c 4d 23 67 3d 04 f2 28 bc
       0.0048712944 0.011081905 0.05643015 -0.010311607
000020 86 fc 92 bd a2 15 49 bc 23 bd 82 3d f9 98 92 3d
       -0.07177071 -0.012273224 0.06383731 0.071580835
000030 1f 26 99 bd 74 17 2d bd a7 8c a1 3c cc 0e 66 bd
       -0.07477974 -0.042258695 0.019720389 -0.056166455
000040 39 d4 7d 3d 22 26 d2 bc 42 4c 42 39 56 82 4b 3d
       0.06196997 -0.025652949 0.0001852969 0.049684845
000050 b1 77 84 3d 70 d0 cb 3b ca de 12 3d 6d 45 52 3d
       0.06468142 0.006219916 0.035857 0.05133574
000060 e1 11 84 3c 09 39 12 bd 8e f4 9e bc aa 9b 88 3d
       0.016121807 -0.035698924 -0.019403722 0.066703156
000070 f4 2f 9c bd 02 b1 7c bd c3 80 5d bc 23 77 20 3c
       -0.07626334 -0.061692245 -0.013519469 0.009794029
000080 bb 51 8b bc fe 51 cb 3c f1 6e be 3c 7c 90 26 3d
       -0.017006746 0.02481937 0.02324626 0.040665135
000090 f3 22 fa 3c a2 82 e8 bc 0c 77 3e 3d 17 72 3f 3b
       0.030534243 -0.028382603 0.04650025 0.002921229
0000a0 c7 18 30 3d 65 4c ce bd e7 d3 f7 3b 8a 3d 05 3d
       0.04299238 -0.10073165 0.0075631025 0.03252939
0000b0 20 9e 8f bd 86 49 69 3d 15 c8 81 3c a2 0b 44 bc
       -0.07012582 0.056954883 0.015842477 -0.011965664
0000c0 e7 9b a1 bd 56 af e4 bc d9 d9 4a bc 86 e9 10 3c
       -0.07891064 -0.027915638 -0.0123810405 0.008844739
0000d0 8a b5 36 bd c5 09 a4 bc 98 7e d4 bd 51 c0 3b 3d
       -0.044606723 -0.02002419 -0.10375708 0.045837704
0000e0 fd 5b 7c 3d 5f d2 42 3d 15 5c 18 3d 13 58 a1 bb
       0.061611164 0.047563907 0.03719719 -0.0049238293
0000f0 dd 80 78 bc 48 21 83 3d 80 83 67 bc 12 71 eb bd
       -0.015167442 0.06402832 -0.014130473 -0.11496176
000100 d2 59 30 bc 73 db 31 bd 88 7d e9 bc dd f1 e7 3b
       -0.010763602 -0.043422174 -0.02850224 0.007078393
000110 ba 61 4c bd 7e 73 8a bc 14 68 86 3c 33 b1 4a 3b
       -0.049897887 -0.016900774 0.01640705 0.0030928373
000120 a3 74 d0 bc a0 37 c6 bc 8c 65 c3 bc 3a 6d b1 bc
       -0.025446242 -0.024196446 -0.023852132 -0.021658529
000130 5f 0c a7 bb 29 79 d7 3d 36 68 0b bd a3 2c b0 bb
       -0.0050979103 0.10521156 -0.03403493 -0.005376415
000140 d9 48 7d bc 9f ef 91 bb 23 59 97 bd 92 e4 17 bd
       -0.015459263 -0.004453614 -0.07390048 -0.037083216
000150 1c 07 b1 bc 94 ae c9 3c f3 ea 05 bd d8 a5 f1 bc
       -0.021609835 0.024619378 -0.03269477 -0.029498026
000160 03 f6 ef ba 4d 02 cb 3c 6e 0c 9e 3d e1 f5 06 3d
       -0.001830757 0.02478137 0.077172145 0.032949332
000170 06 5b 10 bd ae eb eb 3d 07 9a b0 3c 7b 4e 3d bd
       -0.035243057 0.11519562 0.021557821 -0.046217423
000180 05 90 fa 3c 01 a6 ce bc ac 44 77 bd eb 42 98 3d
       0.030586252 -0.025225641 -0.060368225 0.074346386
000190 1a a6 3d 3d 62 bf 8a bc ae 5a a3 bc 9c a3 11 bd
       0.046300985 -0.016936962 -0.0199407 -0.03555642
0001a0 e4 bc 49 3d b9 30 b7 3b 8b 31 3e 3d eb 37 57 bd
       0.049252406 0.005590525 0.046433967 -0.052543562
0001b0 be 64 1e 3d 9e 41 80 bc b5 34 cb bb 4d 43 8b bd
       0.038670294 -0.015656289 -0.0062013515 -0.06799946
0001c0 54 72 49 3d 4c d3 2e 3c a4 35 a1 bd fa 7a b9 3c
       0.049181297 0.010670494 -0.07871559 0.022641648
0001d0 dc 85 3a 3d fc a7 20 3c 1b 37 38 bd 24 e0 af bc
       0.045537814 0.009805676 -0.044974428 -0.021469183
0001e0 ad 96 e6 bd 8f 5a d0 3d e8 b4 a5 3c 19 47 23 3d
       -0.11259208 0.10173523 0.020227864 0.039862726
0001f0 cd 4d 31 bd 99 b9 4b 3d 3c 14 36 3d a2 2d 78 3d
       -0.043287087 0.049737547 0.04445289 0.060590394
000200 35 ad 49 bd f0 bb 3e 3d e0 97 a1 3a 3f a4 c8 3c
       -0.04923745 0.04656595 0.0012328587 0.024492381
000210 5d e6 0d 3d 16 35 e7 bc 16 6b ca 3b 99 5c 68 3d
       0.03464352 -0.028223556 0.0061773164 0.056728933
000220 a7 6d 06 bc b0 cf 16 3c cf 92 fe bb 48 38 32 bb
       -0.008204854 0.00920479 -0.007768966 -0.002719419
000230 f4 75 2c bd a8 e7 86 3d 49 4d 3c bb 77 69 39 bd
       -0.042104676 0.06587154 -0.002873259 -0.045266595
000240 67 26 d0 bc f8 67 0d 3d 54 58 96 bc f4 9c 1d 3d
       -0.025408937 0.03452298 -0.018352665 0.03847976
000250 3e 4a a1 3b ec 6a 43 3d d5 c7 1e bd 94 f5 b7 3b
       0.0049221804 0.04770939 -0.038764793 0.005613992
000260 52 17 84 bb 95 e4 29 bd 0b 52 f7 3a 6d 45 db bc
       -0.0040311003 -0.04147776 0.0018869055 -0.026766503
000270 af 27 45 bd d3 02 47 3c 50 62 0e 3d df a2 a4 3d
       -0.04813355 0.012146669 0.034761727 0.08038878
000280 b5 df 59 bd 90 09 89 bc 70 4f a0 bd 5b 71 89 3c
       -0.05319186 -0.016728193 -0.078276515 0.016777685
000290 79 2f 0e bd 4c 5e ef 3c 0e 35 c6 3b d8 0a 11 bc
       -0.034713242 0.029219769 0.006048805 -0.008852683
0002a0 4a 07 c4 bc 70 f0 c7 bc 8d 8b 8c 3c 6a 9b 88 bb
       -0.023929257 -0.024406642 0.017156387 -0.0041689174
0002b0 f8 31 d6 3b 32 b3 34 3e ad b0 d9 bb b6 0a 30 bd
       0.0065367185 0.17646483 -0.006643376 -0.042978965
0002c0 13 17 3b bd 3c 89 93 bb 2c de 2a 3d 65 28 cd bd
       -0.045676302 -0.0045024436 0.041715786 -0.1001747
0002d0 4c f8 b2 3d c8 31 5a bd 0e 96 6d 3c 0c df 19 3d
       0.08738765 -0.05327013 0.014501108 0.03756623
0002e0 ca a6 05 3e ca 34 f5 3a 2d 89 4b bd a4 9c 2a bd
       0.13051906 0.0018707749 -0.049691368 -0.04165329
0002f0 dc 5d 26 bc 3b 83 ba 3d 86 64 a0 bc 73 6e 37 3d
       -0.010154214 0.091070615 -0.019579183 0.044783067
000300 a8 fc 80 3c e8 d0 ef bb f7 43 b6 bd 2b b4 7c 3c
       0.015745476 -0.0073186047 -0.08899682 0.015423815
000310 13 8b 47 3c 6e 28 50 3c 10 70 5e 3d 9d 6f d8 3c
       0.012179154 0.012704952 0.05430609 0.026420409
000320 e6 41 e2 bd d6 52 25 bd c3 f1 16 3d dd 7d 6d 3b
       -0.110477254 -0.0403622 0.036851656 0.003623835
000330 86 be 55 3d be c8 36 bd de a1 35 bb 64 63 28 3d
       0.05218365 -0.044625036 -0.0027714889 0.04111041
000340 94 e9 c0 3c f7 eb 93 3d 82 ba 3f 3d f6 11 12 3d
       0.023548879 0.07222741 0.046808727 0.03566166
000350 49 2f 16 bd 1a ab 16 3e 8a 5f f4 3c fd 73 aa bd
       -0.03666619 0.14713708 0.029830713 -0.08322904
000360 7e ad 33 bd 5b c5 fd bc cf 11 bf 3a 13 66 be bc
       -0.043866627 -0.030977895 0.0014577451 -0.023242032
000370 9f 2e 4c 3c 30 cb 02 bc e8 01 08 bd c6 66 97 bc
       0.012462287 -0.007983014 -0.033204943 -0.018481623
000380 aa fa 2a 3d 7c b9 dd 3b fa 0e 5d bd d5 cb d7 bc
       0.041742958 0.006766496 -0.05396936 -0.026342312
000390 89 35 68 ba b8 46 1b 3d 85 23 98 bd 38 40 1a 3d
       -0.0008858075 0.03790924 -0.0742865 0.0376589
0003a0 97 88 1a 3d ac 2c da 3b fa 7c 0a bd 71 e2 ce 3c
       0.03772792 0.0066581573 -0.033810593 0.02525446
0003b0 09 bb 8e 3c 75 cc 64 bc 33 79 ce bc d9 0a 03 3c
       0.01742317 -0.013964762 -0.025204277 0.007998192
0003c0 4d f3 9c bd 9a 31 a2 bc 88 b4 b8 bd 0f 07 cc bc
       -0.076635934 -0.019799042 -0.090188086 -0.02490571
0003d0 44 83 48 bd 52 bb bc 3c c2 33 a7 bd 71 ff 69 3c
       -0.04895331 0.02303854 -0.08164169 0.014282093
0003e0 1f 62 a3 3d 5c 65 cc bb f4 f4 3a bd 4a 3c 82 bd
       0.079776995 -0.006237669 -0.04564376 -0.063591555
0003f0 bc 5d 96 ba 02 f6 8e 3d 36 07 28 bd 30 c0 a8 bd
       -0.0011472027 0.06980516 -0.041022502 -0.08239782

6.bias f4 [12]
000000 ff 5d 03 be 8d 87 36 bd 64 4f 72 3c a2 b2 92 3a
       -0.12828825 -0.044562865 0.014789436 0.0011192153
000010 d3 12 37 3d dc c1 b8 bd b8 cd 04 be df cc d2 3c
       0.044695687 -0.09021351 -0.129691 0.025732456
000020 a6 95 2a bd 9c e1 08 be 18 59 fb 3d 20 ad 6f 3b
       -0.041646622 -0.13367313 0.12272853 0.0036571696
