onnx/policy_600.onnx (onnx, 758221 bytes, 8 tensors)

0.weight f4 [512, 45]
00000000: 11d7 f43c a0c6 cb3c 027e 113e 1600 bfbe
00000010: 644b 0a3e 22fb 623d bbc9 233d 05e0 04bd
00000020: a180 543f 9b30 e23c 5ba1 1bbd 2f0b bf3d
00000030: 96ee 5d3e 1dcb c33e fd2f 323f 9dd0 c23e
00000040: c22e 1f3e 992d 153e 90f6 d4bd 9bc2 fb3e
00000050: d44b 4cbe fd84 91be 54c6 423e 8e40 0bbe
00000060: 5e66 7c3d 54cf babf d303 57bd 0ed5 2ebf
00000070: bf2a 553e c3d0 a2be 4d83 bcbe 9fb0 58be
00000080: 92aa 883e 11a4 e2bb c7cd 10bb 3455 6c3a
00000090: 6c19 cf3c 2c34 433c 3369 663c 963c 16bb
000000a0: 6e2c b4bc f905 c33a 8489 2dbc 6225 65bc
000000b0: 4e0f 5a3c 1e04 d33e 4046 4cbd 188d af3d
000000c0: 43d4 6fbf a82c a83d dd7d 02bd c91f 023d
000000d0: d8cb b13c 371b 8bbe dd63 e03e fc4d 4f3f
000000e0: a657 1f3f 540b bf3e 789f 103f 9ed2 df3d
000000f0: f49e 54be aef7 e3be b508 d93c 7810 8abe
00000100: a758 1dbf cec4 20be c40d 963e e055 2abf
00000110: a435 a23e e40d b9be 5776 933f d5cf a93e
00000120: 5827 903f 5f34 4a3f c722 d13d 5510 423f
00000130: 7f3d cfbe 402f 5cbf facd 3e3d 61be 6e3d
00000140: 4249 4fbd a127 313d c175 74bd fbb0 d23c
00000150: b2d5 7cbb d65d 9ebd c639 a83d 4a58 2e3d
00000160: d5f3 7dbd cfa8 143d 8beb 8fbe dc30 07be
00000170: 10b9 a93d 85f1 7fbe b7dd bb3d d9fa 02be
00000180: c883 c93c a756 08bd 10c7 99be 18e0 1fbe
00000190: b848 88be 412f 4d3f 9b44 b2bd 52bd 3c3e
000001a0: 4bb5 c1be b02c 66bc 02c8 ccbe bcf4 9e3d
000001b0: 75d3 f0be 3ce4 803e 8872 5bbe d36f 353f
000001c0: a66a dcbd 72c7 77be 881f 8bbf 231a 2a3f
000001d0: d820 e33d 3377 583e 81b3 bebe 3b75 10bf
000001e0: 19da 66be 5d20 0bbf 9258 58bf fc99 3cbb
000001f0: e793 8e3c 9e65 1bbd f6b7 083d 87f9 17bd
00000200: 47a1 02bd 14d6 47bc f8ab 0f3d dadc a4bb
00000210: 9df7 5f39 ec7a 08bd 72f6 6ebb 485c a73e
00000220: e156 433e 4ac1 62be 3137 c0be aee3 0c3f
00000230: 4cb3 5f3d ea0c 32be 49c6 d63d 032f d4bd
00000240: 47d8 b13d 3c0d c5bd fbd8 873e ab2e 98bf
00000250: da15 9dbd f483 fb3e 4fe0 1dbf 59d9 d93e
00000260: 666d b23d 2ec9 4ebb 70bc 08be 4978 c5bc
00000270: ab9e b23e 6c9b 203f 10ba 193e d0c6 5dbf
00000280: cf93 c93e 8291 3dbe fcd6 fb3d feff 0b3f
00000290: 7f98 65be 205d d2bd c27e a03e 8d82 e1be
000002a0: 7d7f 2ebd 41bc f6bb 78df fbbc 1358 253c
000002b0: e66d 193d affb 283d 089a 39bd 5ac5 633c
000002c0: 3cdc b9bd eee3 b9bd 1f51 303d a935 6c3d
000002d0: 6f1f c73d b7c3 7bbc 7979 21be 77c3 dd3e
000002e0: 7112 0cbf 36fe c13b af02 acbd bbad 12be
000002f0: 851b 8d3e aa84 63bf 8cae 13bf 8ce5 2cbe
00000300: 5535 9bbb 1b7a 71be 1bc5 f9be cbbb 643f
00000310: 4e7f 773f fd2a 92be 3110 c33e 8197 413e
00000320: 5cef b73e 3422 87be ba44 b13e 100b 04be
00000330: 1305 26bf 7402 803e 9726 423f 9045 1c3f
00000340: ba5f 09bf dc2d 0abc 4272 93bf 3164 a8be
00000350: 9fe5 17be 7ad2 b43b aa51 33bc c676 02bd
00000360: 75a7 5f3c cf43 2b3c 60fe f53c db91 cdbc
00000370: 7403 c1bc b312 3ebc 70b3 b73c 4ae2 8e3c
00000380: 8927 70bc 3bc0 3dbe 58ad 45be 0b46 7bbe
00000390: 8e9e 6fbe fe8f 14be 067e cc3c 041f e23d
000003a0: 5571 96be b101 583d 1080 31bf f0e2 64bf
000003b0: 30ee c23d 8890 173e aeaa 8ebe 14fd 2abd
000003c0: bb23 afbd 39b0 033d 0f0d c7be 7688 07be
000003d0: 004d 4a3e 69d9 b13b 4ed3 c63e ba7a a13d
000003e0: f465 eabe 954b 6cbf 175f 19bf 1650 78be
000003f0: 93c2 a83e 2c7d d63d af43 44bf 4be8 06bf
0.029887708 0.024874985 0.14208224 -0.37304753 0.13505322 0.05541528 0.039987307 -0.032440204
0.8300877 0.027611068 -0.037995677 0.09328305 0.21673045 0.382409 0.69604474 0.38049784
0.1554518 0.14568175 -0.103985906 0.4917191 -0.19950801 -0.28421775 0.19020969 -0.13598844
0.061621062 -1.4594522 -0.05249388 -0.68293846 0.20817088 -0.31799898 -0.36818925 -0.21161126
0.26692635 -0.006916531 -0.002209531 0.0009015382 0.025280677 0.011914294 0.014063167 -0.0022924296
-0.021993842 0.0014879099 -0.010591868 -0.013985964 0.013309313 0.4121408 -0.049871683 0.08571833
-0.9368326 0.082116425 -0.031858314 0.031768594 0.021703646 -0.271692 0.4382619 0.8097837
0.62243116 0.3731333 0.5649333 0.10928844 -0.20763761 -0.44524902 0.02649341 -0.2696569
-0.614634 -0.15700075 0.29307377 -0.66537285 0.3168155 -0.3614341 1.152049 0.33166376
1.1262007 0.7898616 0.102117114 0.7580617 -0.40476605 -0.860096 0.046583153 0.05828703
-0.050606973 0.043250684 -0.05968261 0.025719156 -0.003857952 -0.077327415 0.082141444 0.042564668
-0.062000114 0.0362938 -0.28109393 -0.13202232 0.08287251 -0.24994476 0.09173148 -0.12791003
0.024598971 -0.033285763 -0.30034685 -0.15612829 -0.2661798 0.8015023 -0.08704492 0.18431595
-0.37833628 -0.01404874 -0.39996344 0.07761523 -0.4703633 0.2517413 -0.21430409 0.70873755
-0.10762529 -0.24197176 -1.0868998 0.6644613 0.11090249 0.21139221 -0.37246326 -0.5642888
-0.22544135 -0.5434626 -0.8451015 -0.0028778305 0.01740451 -0.037938707 0.033378564 -0.037103202
-0.031892087 -0.012197036 0.03507611 -0.0050312104 0.0002135918 -0.033320352 -0.003646281 0.32687593
0.1907611 -0.22144046 -0.37542108 0.5503491 0.05461435 -0.17387739 0.10487039 -0.10360529
0.0868383 -0.09621665 0.2653273 -1.1889242 -0.076701835 0.4912411 -0.6167039 0.42548636
0.08712272 -0.0031553018 -0.13353133 -0.024105208 0.3488668 0.62737155 0.15012383 -0.8663149
0.39370582 -0.18512538 0.122968644 0.5468749 -0.22421454 -0.102716684 0.3134671 -0.44044915
-0.04260205 -0.007529766 -0.030746207 0.010091799 0.037458323 0.04125565 -0.04531291 0.013902033
-0.090752095 -0.09076677 0.043046113 0.05766836 0.09722792 -0.015366486 -0.15768994 0.4331319
-0.5471564 0.005920197 -0.08398949 -0.14324085 0.27560058 -0.88874304 -0.5768821 -0.1688444
-0.0047365823 -0.23581736 -0.48783192 0.8934905 0.96678627 -0.28548422 0.3809829 0.1890545
0.35924804 -0.26393282 0.34622747 -0.12894845 -0.6485149 0.25001872 0.75840133 0.61043644
-0.5366169 -0.008433785 -1.1519244 -0.3288894 -0.14833687 0.005518255 -0.010944763 -0.031851552
0.013650765 0.010453179 0.030028522 -0.025093963 -0.023561217 -0.011601138 0.02242443 0.017441887
-0.014657863 -0.18530361 -0.19304407 -0.24538438 -0.23400328 -0.14508054 0.024962436 0.11041072
-0.2938334 0.052735988 -0.6933603 -0.8940878 0.09518087 0.14801228 -0.27864593 -0.04174526
-0.08551737 0.03215048 -0.3887715 -0.1323565 0.19755936 0.0054275286 0.38833088 0.07884736
-0.4578091 -0.9230283 -0.5991072 -0.242493 0.32960948 0.104730934 -0.76665777 -0.526982

0.bias f4 [512]
00000000: 63b6 ea3c ebba b6bc 9dbe c8bd 2e37 e8bc
00000010: c0ff 653d 9461 e5bd 4cd6 863d d278 f23a
00000020: cac9 eabd 311d 36be e0e3 e3bc 5ed5 10be
00000030: bbf6 913b 5c11 ebbc b9d5 a8bd 2e9b b73c
00000040: 0351 543d 8c67 b7bd b3c6 4d3d de0d f5bd
00000050: 4d6d 97bc 82d2 66bd 5b02 8f3d 9354 633d
00000060: 25ad a5bd 522c fcbc 670a 6a3d fd67 87bd
00000070: 2a11 783d 107e 18be 3d74 03be 85d0 273d
00000080: 1377 35be a99f debc a122 7dbe 929e f0bd
00000090: 2f4d b8bd 87e8 123d 6deb 933c 7c2f 963c
000000a0: 3861 7b3d d0b2 09bd 7f2f 763d 0d5c 643e
000000b0: 37a2 67bc 8c53 673c 94d1 b0bd 1aa9 23be
000000c0: 63af cebc 43d3 0b3e 275d 91bd 977f b83d
000000d0: 7927 e73c d28f 8bbd 3aca 29be 4f00 043e
000000e0: ac9f 8dbd 8e31 283e ba45 413e e68f c63d
000000f0: 0e6c e23d f8b9 163b a14d 8f3d 6e0e 29be
00000100: c4c2 8c3d d1f5 1bbe 1faa 15be 87bc f6bb
00000110: fdf6 0cbe 0910 c4bb e313 5e3d 6406 95bc
00000120: 9b49 66bd 1f18 e1bd 9eb4 2fbe 8b05 f2bd
00000130: eed3 80be 5abb 89bd 5147 c13c 5563 893c
00000140: 18db d63d 5b88 1b3d a867 07be e861 19be
00000150: d060 833d cdb1 8ebc d7f9 8ebd 95d9 95bd
00000160: bff5 f1bd c198 153d 28f1 83bd ecc2 3e3c
00000170: 37cd 68be 8777 f8bd 2834 23bc ccbc 89ba
00000180: 34f6 b4bc 39d9 36bd 7929 00bd 7df8 c03c
00000190: 3e4f 62be d916 9d3c e7eb 96bd 8a52 69bd
000001a0: bcc0 483d 122a a2bc a70f 08be 534e cebc
000001b0: 2479 13be 1f8e 86bd 9ef3 213e 1e29 ad3d
000001c0: 8f05 0ebd 4f72 aa3d 111f 813d 0dbe 833d
000001d0: 671b a33d f754 9ebe 9c13 8bbc 38f7 52be
000001e0: f769 79be 6e0e e9bd 9e3d f23d 9dbe 0abe
000001f0: 6854 413e fe77 35bc 6b26 9cbd 771c 1dbe
00000200: da42 a53d d184 ce3d 594d 0cbe e28f 08be
00000210: 63f0 e83d b115 803d 5aa7 e73b c21b a2be
00000220: 54b2 753b 7925 b0bc 3c18 653d 6175 05bc
00000230: 1331 a5bd 80a6 90bd 1dfd be3d 0478 d3bd
00000240: c73b e13d b5e0 a8bc 603f d6bd d03b 2c3d
00000250: 603d 9c3d 1cf7 0b3e e2ee 3fbe 2793 44bd
00000260: 7b11 483d fa4b 26be cdc2 37bd 10b4 59bd
00000270: f0db 43bc 633c d73d cc82 00be b912 ac3d
00000280: 081f 453d 4148 1cbe 8d0e 9e3b f302 f03d
00000290: 48bf 0abe c673 d4bd caff d6bc 56b9 c13d
000002a0: 6929 41be 66f7 6dbc 6cfd 9e3d e544 34be
000002b0: 39c3 fe3d 6894 93bd c996 133d 47e5 723d
000002c0: 7433 8f3c b765 cebd 5114 49bd 6f55 a4bd
000002d0: 58ca c4bc b048 35bd 48d9 49be b85c 4abe
000002e0: c541 023e 6c91 4e3d e14a 2abe 5a1f b93d
000002f0: ec28 14bd 4c26 74bd a984 c1bc 9919 e9bc
00000300: 726d 973b c1ae 473d b772 94bd 9b8d 21be
00000310: bfd4 203d d79a a9bc e17c 243e 37ae 08be
00000320: 8196 aebd 8de4 ccbc 21cf 3cbe f28f 95bd
00000330: 45e9 f33d c854 023e 064b 6fbc cb50 37bb
00000340: 0947 35be 65b8 84bd eedc 51bd 9490 833b
00000350: 2b0b c43d c3d1 d2bd 7a43 923d 9a4e 27bb
00000360: f346 21bd f794 573d 2bff a33d 278f 91bc
00000370: 7c4f 5c3d 447e 19be ec5c 90bd 3433 16bd
00000380: 1473 943d 695e 0bbe c773 7bbe 5cd4 d13d
00000390: b6d1 173d 118e e6bd 7a02 d8bd e79c 4d3c
000003a0: 5132 8cbb 46d4 ddbb e423 4fbe c80c 07be
000003b0: ae05 20be 6d93 6d3d e4ae 3abc f343 da3b
000003c0: 6d3a 4abe 2a06 423c dc79 243d 211a d3bd
000003d0: ec27 fabc 9ed6 a33b 3138 1ebe 8da1 123e
000003e0: b1ce 69bc 4959 a73d a930 813c aea1 4e3d
000003f0: e4b7 1bbd 1217 0fbe 0ae7 a4bd 44de 063e
0.028651422 -0.022305926 -0.098019816 -0.028346624 0.056152105 -0.11200252 0.06583843 0.0018499142
-0.114642695 -0.17784573 -0.02781862 -0.14143893 0.0044544614 -0.028694801 -0.08243889 0.022412863
0.05183507 -0.08955297 0.050238322 -0.119655356 -0.018484736 -0.0563531 0.06982871 0.055500578
-0.08089665 -0.030782852 0.057138827 -0.06611631 0.060563244 -0.14891839 -0.1283731 0.040970344
-0.17721204 -0.027175741 -0.24720241 -0.11748995 -0.089990966 0.035866287 0.018056596 0.01833319
0.061372012 -0.033617795 0.06010389 0.2230074 -0.014137796 0.01411904 -0.08633724 -0.15982476
-0.025230115 0.13654809 -0.070978455 0.09008711 0.028217064 -0.06814541 -0.1658105 0.12890743
-0.069152206 0.16425154 0.18874255 0.09695415 0.11055766 0.002299903 0.069972284 -0.1650941
0.06873086 -0.1523049 -0.14615677 -0.0075297984 -0.13766094 -0.005983357 0.054218184 -0.018191524
-0.05622254 -0.10990929 -0.17158744 -0.118174635 -0.2516169 -0.067251876 0.023593577 0.016770998
0.104910076 0.037971836 -0.13223135 -0.14978755 0.0641495 -0.017418766 -0.06981247 -0.07316891
-0.118144505 0.03652263 -0.06442481 0.011643153 -0.22734533 -0.12132173 -0.0099611655 -0.0010508536
-0.022090055 -0.044640753 -0.03128955 0.023555988 -0.22100541 0.019175934 -0.073692136 -0.05696348
0.04901193 -0.019795451 -0.13287221 -0.025183832 -0.1440168 -0.06570076 0.15815589 0.08455108
-0.03467327 0.08322584 0.063047536 0.06432734 0.07964211 -0.30924198 -0.016977124 -0.20602119
-0.24356829 -0.11379705 0.11828159 -0.13549276 0.18879855 -0.011075972 -0.07624515 -0.1534289
0.080693915 0.100839265 -0.13701381 -0.13336137 0.11373975 0.06254137 0.0070695104 -0.31661803
0.0037490325 -0.021502243 0.055931315 -0.008145661 -0.08066001 -0.07063007 0.09325621 -0.103256255
0.1099773 -0.020614961 -0.104613066 0.04204923 0.07628894 0.13668483 -0.1874347 -0.047991898
0.048844796 -0.1623992 -0.04486351 -0.053150237 -0.011954293 0.10509565 -0.12549895 0.084020086
0.048125297 -0.15261938 0.004823512 0.117193125 -0.1354953 -0.103736445 -0.026245017 0.09459178
-0.18863453 -0.014524316 0.0776318 -0.17604406 0.124395795 -0.072060406 0.03603247 0.059300687
0.01748059 -0.10077994 -0.04909164 -0.08024108 -0.024022266 -0.044258773 -0.19711792 -0.19761932
0.12720402 0.050431654 -0.16630127 0.09039183 -0.03617184 -0.059606835 -0.023622828 -0.028454589
0.004621201 0.048750643 -0.072484426 -0.15776674 0.03926539 -0.020703716 0.16063263 -0.13347708
-0.085248 -0.025011325 -0.18438388 -0.07302846 0.11909727 0.12727654 -0.014605289 -0.002797174
-0.17702879 -0.06480483 -0.051236086 0.004015038 0.095724426 -0.10293915 0.071417764 -0.0025529028
-0.039374303 0.0526323 0.08007654 -0.017768456 0.05378674 -0.14989573 -0.070489734 -0.036669925
0.07248512 -0.13610233 -0.24555884 0.102455825 0.03706523 -0.11257566 -0.10547347 0.012549615
-0.004278459 -0.0067696897 -0.20228535 -0.1318847 -0.15627167 0.058001924 -0.011394236 0.006660932
-0.1974885 0.01184229 0.040155277 -0.10307718 -0.030536614 0.0049999496 -0.15451123 0.14319439
-0.0142704705 0.08171327 0.015770273 0.05044716 -0.03801717 -0.13973644 -0.0805188 0.13170725

2.weight f4 [256, 512]
00000000: 57c0 a9bb 76fc e33c 4950 f83c b2bb c0bd
00000010: fbe4 cbbd 782e 393c 116d b9bc cb47 d53d
00000020: d0c3 843e 6b30 0b3d 8bff 82bc e9c0 5a3b
00000030: 78d5 d7bd 4b48 f2bd ce64 873e ee33 f3bd
00000040: d8fe 19bd 770a 983d 2473 ce3b e245 bdbd
00000050: 6992 0abd b7f2 bc3d f7c3 85bd a676 40bd
00000060: c8bf cc3d ca05 b93d d7be 09be a714 b7bd
00000070: b029 d43d 6b39 55bd bb8f 443e f3e2 fdbb
00000080: cc03 d8bd bd68 e93d be0a dd3d 276d 55be
00000090: 7c66 803e d97f 92be c80c d3bc d8f8 1a3c
000000a0: 2b26 9bbd a156 fc3d f8a3 1abe f131 1bbe
000000b0: c0f0 debb 111a 1cbd 5b09 a1bd 3d81 5d3e
000000c0: 3723 e9bd 224b 263c cfa6 f83d 5dde 82bd
000000d0: a33b b7bd 250d febd c9f0 0cbe 61fa 12be
000000e0: dc91 a63e a1b0 01bd e939 353d 49fb 513d
000000f0: 9854 903d 68f1 853d 9dcd 17be 1712 a9bd
00000100: 5b59 603d 6402 ee3c c407 b0bd d6f2 d0bd
00000110: e7cb 173e d4e8 863c 5b4b 1fbe 3a7a 20be
00000120: 00f7 ddbd acaf e33d 2724 4a3e 22e0 7d3c
00000130: 036e 133e 74d6 2fbe 1f04 50bd 6f7a 0dbe
00000140: 610c c0bd d0bb 92bd 50ad 9b3c 1b17 ed3d
00000150: f45d 993d e2a5 2f3e ae6d 5bbd e9b2 da3d
00000160: 4be5 283e 90f5 363d 5497 dcbd 1f8e 473d
00000170: fee5 cf3d db06 0a3d c7bd f13d 6aed 8cbd
00000180: 0572 1c3e ea79 eabc c7d2 023d b72f 04be
00000190: e728 7c3d c328 24be 62aa 343d b953 38bd
000001a0: 186d c5bd d14f efbd 7891 143e 42f8 c93c
000001b0: 1fd2 84bd 2180 afbd 19fd 883d 5a46 9fbc
000001c0: 8dc7 c13d 6d28 3a3c 9021 1fbd b088 debd
000001d0: ae6d df3d ae8c b93d b462 4b3e e490 c53d
000001e0: bb4c 4abd 6d57 113d f50d 2d3d d4e5 7e3d
000001f0: 1b30 073e 03c1 783d 8c01 a83d ce0e 1a3e
00000200: e93e 8dbe 3e67 fd3d c899 bf3d 1a91 793c
00000210: 1ea0 97bb 533d 11be 519f 1d3e 57ba 883e
00000220: 6705 8dbc 51b0 43be 3494 bcbd 7570 32be
00000230: afc9 a3bd 7b42 913d ebb9 e73c e472 f83c
00000240: 6479 5dbe 33b3 8f3d f7ff 0a3e 3fe3 06bd
00000250: c33e 8bbd 54cb d83d 06eb 143e 5a1d 0ebe
00000260: be94 9fbd 0c46 a0bd 2421 f73c 68f2 82bd
00000270: 482b 3bbd 2aa1 31bd f41c bc3d f5d7 143e
00000280: 9f81 76bd 282c 413e 2d4b e33d 5937 74bd
00000290: 9201 6dbd b5ee 1b3e b0ae abbd 0a62 b3bd
000002a0: b270 8abc 6387 443d 9d5b 5a3d 6ee0 733d
000002b0: 15a6 263d cb4a b7bd 43cd 2d3e 41ae 4bbe
000002c0: 3516 aa3d 2d06 123e 31d8 e1bd eed0 3f3d
000002d0: b6bb 30be fe75 b53c af49 043d 8390 c7bc
000002e0: 9e74 a1bd fc4d 71be 9026 1d3e 147f 0a3d
000002f0: 1e53 c8bd f65e 843c 4b31 a1bd 3c43 d9bb
00000300: 4fea 133e 5c0d adbd 4a4e db3d 144c edbc
00000310: 5f2c deba 300f 67be 319d 6abb 0aae 25bd
00000320: 94b4 733d d668 6b3e 2a4a 6e3d edc8 cb3d
00000330: efcb dfbc 3371 12be b0c4 dcbd 2875 55bd
00000340: 121b 013e 016c b93d 893c de3d b6b5 09be
00000350: 3b7a ee3d edb0 02bd 30d6 89be 2689 f13c
00000360: e4a0 5dbd 8d8c 853d d539 3e3c d04b 79bc
00000370: b53c 69bd 74df e13d 2a67 89bd 5e01 a0bd
00000380: 97fc 18bd f094 163e e941 443c bc0c 923c
00000390: 6cbf 9ebe 7807 0a3d e76d 2b3c 53f5 223d
000003a0: e0df 30bd ef3b 7fbd cbe1 f13b fd10 5a3d
000003b0: b93b 313d cbfc 143e 2b37 913e 23c1 abbd
000003c0: 56e1 44be b868 513c bceb 58be cddf 0a3e
000003d0: 1d25 0c3e 90dd 03be 07ab 6e3c 41cb 51be
000003e0: 6d9b 52bd 6076 afbd 58b1 ea3d 2256 45be
000003f0: 1547 8dbb 9869 ddbc b5b9 303e 8d90 cf3d
-0.0051803994 0.027830344 0.03031172 -0.094108 -0.09955784 0.011302583 -0.022635015 0.10414084
0.25930643 0.03398172 -0.015990993 0.0033379144 -0.10538763 -0.11830195 0.26444095 -0.11875139
-0.037596554 0.07423871 0.006300347 -0.09241845 -0.033831034 0.09225982 -0.06531518 -0.046988152
0.09997517 0.09034307 -0.13451706 -0.08939486 0.10359514 -0.05205671 0.19195454 -0.0077480017
-0.10547599 0.1139693 0.107930645 -0.2084242 0.2507819 -0.28613165 -0.02576293 0.009458743
-0.07575639 0.12321211 -0.15101612 -0.1515577 -0.006803602 -0.038110796 -0.078631125 0.21631332
-0.1138367 0.010149749 0.12141191 -0.06390069 -0.08946922 -0.12404851 -0.13763727 -0.14353324
0.32533157 -0.031662587 0.04424468 0.051265035 0.07047385 0.06540185 -0.14824529 -0.082554035
0.054772716 0.029053874 -0.08595231 -0.10202567 0.14823876 0.016468443 -0.1555609 -0.15671626
-0.10838127 0.11117491 0.19740354 0.015495332 0.14397435 -0.17171651 -0.05078518 -0.13816236
-0.09377361 -0.07164729 0.01900354 0.11576673 0.07488623 0.17153123 -0.053571396 0.10678656
0.16493718 0.04466778 -0.10771051 0.04871952 0.101512894 0.033697944 0.11803775 -0.06881221
0.1527787 -0.028622586 0.031939294 -0.12908827 0.061562445 -0.16031174 0.044107802 -0.04500172
-0.096399486 -0.11685146 0.14508617 0.024654511 -0.0648539 -0.085693605 0.066888995 -0.019442726
0.094618894 0.011362177 -0.038850367 -0.10865915 0.109095916 0.09060036 0.19861871 0.09646776
-0.049389582 0.035483766 0.04224964 0.0622309 0.13201945 0.060730945 0.0820342 0.1504471
-0.2758706 0.123732075 0.09355503 0.015232349 -0.0046272418 -0.1418355 0.15392806 0.26704666
-0.01721449 -0.19110228 -0.09207955 -0.17425711 -0.079974525 0.07092758 0.028286895 0.030328222
-0.21628338 0.070166014 0.13574205 -0.032931563 -0.0679908 0.10585657 0.1454278 -0.13878384
-0.07792042 -0.078258604 0.03016717 -0.063938916 -0.045695573 -0.04336659 0.0918521 0.14535506
-0.06018221 0.188645 0.11098323 -0.059623096 -0.057862826 0.15227778 -0.08382928 -0.08758934
-0.01689944 0.047980677 0.053310025 0.059540205 0.040685732 -0.089498125 0.16972832 -0.19890691
0.08305017 0.14260168 -0.11027563 0.04683011 -0.17259106 0.02215099 0.032296833 -0.0243609
-0.07883571 -0.23564905 0.15346742 0.033812597 -0.09781478 0.016158562 -0.0787073 -0.0066303294
0.1444485 -0.08449814 0.10708292 -0.028966941 -0.001695048 -0.22564387 -0.003579926 -0.04044918
0.059498385 0.2298921 0.058176197 0.09950433 -0.027318923 -0.14300995 -0.10779703 -0.052113682
0.12607983 0.09053803 0.1085139 -0.13448223 0.11644407 -0.03190701 -0.26921225 0.029484343
-0.054108515 0.065209486 0.011610468 -0.015215829 -0.05694266 0.110289484 -0.0670913 -0.07812761
-0.037350263 0.14705253 0.011978605 0.017828338 -0.31005418 0.03369853 0.0104632145 0.03978474
-0.043182254 -0.062313017 0.007381653 0.053238858 0.043269847 0.14549558 0.28362402 -0.08386447
-0.19226584 0.012781315 -0.21183676 0.13561936 0.13686033 -0.12877488 0.014567143 -0.20487691
-0.051417757 -0.085675 0.11459607 -0.19271138 -0.004311452 -0.02702789 0.17258342 0.10134993

2.bias f4 [256]
00000000: 3e95 82be 8ef3 34be 8742 92be e8bd fbbd
00000010: db6c 88bc 19c6 93bd e178 00be 1cb4 febd
00000020: c818 2abe 5fe7 a7bd a083 2dbe 3099 90be
00000030: 7268 01be 996e cebd 909b b7bd 558a 72be
00000040: afc2 0fbe 41a8 c13a 0fbf 79be 4277 b63a
00000050: 3624 c6bd 265c 06be 8e28 8abd fc37 20be
00000060: f8dc 11be 04bc b3bd 753d 4dbe 281a 44be
00000070: d2d8 e4bd 3e5c 233d 7235 06be 2f7a 9fbd
00000080: 85c4 74be d174 06be 5b54 cbbd 9d26 d8bd
00000090: 6fd5 41bd 6440 d6bd e9e1 34be 3ce8 cfbd
000000a0: 2aea f2bd a5d2 f0bb d297 1cbe def0 b3bd
000000b0: 96e2 b4bd a94c e3bb aa51 19be 5545 45bd
000000c0: b143 163d 7171 bdbd 7644 d1bd 63db 21be
000000d0: 26d6 f1bd 2621 70be 37e3 e2bd 2ed5 01be
000000e0: fe17 d8bd 3cf3 9bbd 057f 4dbc 323e 763c
000000f0: 2eb7 71bc ca81 5e3d fc3d b5bd afe9 8abd
00000100: 6db4 02be e6b5 8fbd 656e ae3c d419 fcbd
00000110: 0a6b acbc f601 5abe 78b3 95bd 344c 833d
00000120: e6df 91bd ea0b 08be 616a 10be 3e57 bfbd
00000130: deed 5dbc 22a3 13be 5403 88be fe0f e4bb
00000140: 1e89 f5bd dd02 9bbd d83a fcbd 3672 233d
00000150: 5e8d d6be ed29 7cbe 46f8 7abd c638 2cbd
00000160: 624c 4dbe a70c 37bc c7de 52bd 74e3 acbd
00000170: 2fb5 01be 1bff 27be a05a 2dbe 486f 61bd
00000180: ae6c bebd 2ea4 15be a837 22be e80b b6bd
00000190: 7ceb 63be 012f 28be 2bea a3bd d50f 74be
000001a0: 97fc bfbc 37b2 03be b15c 41bd 931b d4bc
000001b0: fbad 21be 368b 05be 5615 33be 7275 71be
000001c0: 9ee3 8abe c0f9 96be b71c 933a 65c6 57be
000001d0: b9b6 2abd 1ada 1fbe c95b dabc 60ac b1bd
000001e0: 926a 5fbe d2a1 cebd 37d3 8bbd 7426 2fbe
000001f0: 8165 c9bd 5715 10bd 5e81 4fbe 92c0 58bd
00000200: 687a b5bd 4d59 13be d582 ef3c 9993 43be
00000210: ef6a 5dbe ccbd 6cbd caba 21be 14b3 7bbd
00000220: 37a1 8dbc 66bc dabd 169f 11be 8171 77bc
00000230: 573c 60be a202 82be e99c 4bbe c5b9 b9bd
00000240: a31d 653b 892e 49bd 6748 1cbe b381 0cbe
00000250: 2872 213d dbbc 23be 8ca5 98bd 201c 46be
00000260: 004e bebe ca1e adbe 5ff8 1dbe c31c b7bd
00000270: a6e9 95bd 720e 21be f041 7bbd 6859 edbd
00000280: 6b2d 8abe 613a 8cbd 9e66 bd3c 3ee0 35be
00000290: e5f8 5fbd 9a1a b2bc b37f eebd e217 09bd
000002a0: 9ea5 50be 64e3 d3be d535 0fbd fa7e 793c
000002b0: a999 b5bd 7317 17be 1a20 09be 1799 4bbe
000002c0: c2cd 16be 87ef 7cbd a6c6 26be 591e 37be
000002d0: abc9 ccbe 8730 fdbd ceb3 9dbd bfbc 85be
000002e0: ec83 70be 3fbe b8be cb78 36be c834 fdbd
000002f0: ca37 7bbe 09f5 0ebe c20a 09be d846 ccbd
00000300: 1ae2 7ebc e627 c2bd 4ebc 02be 6e54 10be
00000310: c310 7dbd 0ba3 eebd feb5 cdbd fa61 90bd
00000320: 02a6 9bbe 235c 3cbd e84c 46bd 9d2e 06bd
00000330: 035f d0be c042 01be 6879 33be f9ce 6cbe
00000340: f1e7 dcbd f364 a7bd 1066 34be ff61 f4bd
00000350: 3214 90be 9a0d 21be 6b89 8dbe f0db 0ebe
00000360: e81d e2be 6250 42be 7c3e a2be 9a7c 05be
00000370: 3980 0bbd ead7 40be 6ee0 31be 9c45 5cbe
00000380: 7f1b 1abe f019 38be fab7 d0bd 41a4 8abc
00000390: 739a 77bd d283 02be 9e8c 03be e428 a2bd
000003a0: e398 5cbe c1a1 8ebd 7906 99be 4f38 2bbe
000003b0: b755 80bd 9fdd 17be 6938 edbd 248d 11be
000003c0: b751 fabd bf9b 31bd 1ed9 0bbe bada f5bc
000003d0: 7a82 12bd ecc3 eabd c26b 72be 44f3 c0ba
000003e0: 3565 79bc a6df cebc 35ab 6cbe 5e7e 0cbe
000003f0: 7868 53be 31de 0ebe 80df cfbd e9f5 39bd
-0.25504488 -0.17671034 -0.2856638 -0.12292081 -0.016653469 -0.072155185 -0.12546112 -0.12436697
-0.16611016 -0.081984274 -0.16944742 -0.28241873 -0.12637499 -0.100796886 -0.08965218 -0.23685582
-0.1403911 0.0014774875 -0.2438929 0.001392104 -0.096748754 -0.1312109 -0.067460164 -0.15646356
-0.14244449 -0.087760955 -0.20042975 -0.19150603 -0.11174168 0.03988289 -0.13106325 -0.077869765
-0.23903091 -0.131305 -0.09928199 -0.1055424 -0.047322687 -0.104615 -0.17664303 -0.10151717
-0.118610695 -0.0073493295 -0.1529229 -0.08786176 -0.0883228 -0.006936629 -0.14972559 -0.048161823
0.03668565 -0.09250153 -0.10218136 -0.15806346 -0.11808424 -0.23450145 -0.11078494 -0.12678978
-0.10551451 -0.07614753 -0.012542491 0.015029477 -0.014753146 0.054322995 -0.08849713 -0.06782853
-0.1276414 -0.07017116 0.021292875 -0.12309614 -0.021047134 -0.2128981 -0.073096216 0.06411019
-0.07122783 -0.13285795 -0.1410308 -0.09342812 -0.0135454815 -0.14417699 -0.2656504 -0.006959914
-0.11989044 -0.075689055 -0.12315911 0.039903842 -0.4190473 -0.24625368 -0.06127193 -0.04204633
-0.20048669 -0.01117245 -0.05148199 -0.08441821 -0.12666772 -0.16405909 -0.16929102 -0.055037767
-0.09298073 -0.14613411 -0.15841544 -0.0888899 -0.22257799 -0.1642418 -0.08003648 -0.23834164
-0.023435874 -0.12860952 -0.047207538 -0.025892055 -0.15789025 -0.13041386 -0.17488608 -0.23579958
-0.27126783 -0.2948742 0.0011223768 -0.21071775 -0.041678164 -0.15610543 -0.026655095 -0.08675456
-0.21817997 -0.100894585 -0.068273954 -0.17104512 -0.098338135 -0.0351766 -0.20264193 -0.052918024
-0.08861238 -0.14389534 0.02923719 -0.19099273 -0.21622823 -0.057798192 -0.1579391 -0.06145008
-0.017288787 -0.106804654 -0.14220843 -0.015102745 -0.21898018 -0.25392634 -0.19884075 -0.09068636
0.0034960292 -0.049116645 -0.15261994 -0.13721351 0.03941551 -0.15990011 -0.074534506 -0.19346666
-0.37168884 -0.33812553 -0.15426777 -0.08941033 -0.073199555 -0.15728167 -0.06134218 -0.115893185
-0.26987776 -0.068470724 0.02312022 -0.17761323 -0.054680724 -0.0217412 -0.116454504 -0.033470042
-0.20375678 -0.41384423 -0.034963448 0.0152280275 -0.08867199 -0.14755039 -0.13391152 -0.19882618
-0.14726928 -0.06175187 -0.16286716 -0.1788267 -0.3999761 -0.123627715 -0.07700311 -0.26120564
-0.23487824 -0.36082646 -0.17819516 -0.12363583 -0.24533 -0.13960661 -0.1338301 -0.0997445
-0.0155568365 -0.09480266 -0.12767145 -0.14094707 -0.061783563 -0.11652192 -0.10044478 -0.070499375
-0.3040009 -0.045986306 -0.048413187 -0.032759298 -0.40697488 -0.1262312 -0.17526782 -0.23125829
-0.10786427 -0.081735514 -0.17617059 -0.11932754 -0.28140408 -0.15727845 -0.27643904 -0.13951087
-0.44163442 -0.18975976 -0.31688297 -0.13035813 -0.03405783 -0.18832365 -0.1737077 -0.21510929
-0.15049551 -0.17978644 -0.10191341 -0.016924025 -0.06045003 -0.12745598 -0.1284661 -0.079179555
-0.21542697 -0.06964446 -0.2988775 -0.16720699 -0.06266349 -0.14830635 -0.11583025 -0.14213997
-0.12222617 -0.04336142 -0.13657042 -0.030011524 -0.035768963 -0.114631504 -0.23673919 -0.0014720936
-0.015221884 -0.025253128 -0.23112185 -0.1372008 -0.2064532 -0.13951947 -0.10150051 -0.045400534

4.weight f4 [128, 256]
00000000: b791 cf3d fc00 6cbd fc90 9dbd 12e9 223c
00000010: f69d d3bd 7dc7 553d 218d 663c bd9b 9f3d
00000020: 3e3f 3f3c 4680 6fbd 3a99 8cbb afff c63b
00000030: 37e6 dcbd 3d28 013d e4dc 4bbb 3796 d13c
00000040: c570 183c 155e 90bc c3ae df3c 2c5c 6bbc
00000050: 7f2e ab3a 66f8 09be 7cfa 523d b31f 90bd
00000060: 1a8d 933d 5c94 213e 6fa9 023d bc0b bdbb
00000070: 10c4 70be 6380 b0bd a85c 833d 8d06 923b
00000080: 2867 f0bd e71d b13d 5b1c 483e 6b9c 823d
00000090: 00f8 c23d 6dfa 4d3d ef6a 0ebe cc27 93bd
000000a0: acde 0abe 7a05 afbc 55bf a03d 93dc 02be
000000b0: 1745 1e3d f492 9bbc a8b6 25bd a6a8 333d
000000c0: 7fe7 c83c a1ff fabd 48cc c5bd 704c 213d
000000d0: 549f 203d 1b88 f2ba cb3d 243d c81b b8bd
000000e0: 813d 48be 43cc c6bd 1c22 a13c 1d7d 013e
000000f0: 4f6a 26be 4343 a6bd c713 fabc 9243 91bd
00000100: dbcf f53c 5f9a 5cbc 98a2 10bd 524a f03c
00000110: c9c7 003d 0f20 c1bd 1425 cc3d c937 12be
00000120: 79ae 02be 135b 9ebd 7080 efbd 3613 b2bc
00000130: 5637 4a3c 5274 84bd bdf7 313e a0c0 b1bd
00000140: c961 f7bd d5bb a43d 1f16 933d 3669 083e
00000150: 210d 423b 912f 6b3d ec6a 83bd 3ca1 59be
00000160: b605 133e 0aae cfbd c9fe 053e 7134 a3bd
00000170: 6b8f 833d b96a e13b 63d4 a53d 187d e53c
00000180: 85eb 473c db92 46bd 6218 9ebd 562d a43d
00000190: 0f79 ffbd 2e44 15be 36f0 49bd 1ad8 0b3d
000001a0: 60ec d7bd ea99 cfbd 5b5e 32bd c29b 25bc
000001b0: 6b0d a9bc caae f93b 7966 dc3c cc11 883c
000001c0: 2705 dabd 36bd 96bd 4478 8fbe 9d60 0bbd
000001d0: d3c8 f4bd 74ab 2f3d 591c b7bb 4997 7d3c
000001e0: 669b f8bc d6d3 e23c f059 bdbd fbd1 c0bb
000001f0: 1ea9 32bd c425 8f3c 4b06 2bbe 35da a4bc
00000200: 911b 97bd 3ce3 03bd 8863 5d3d fa6c ee3d
00000210: 6a6a c9bc bb52 e1bd 79de 723d 42aa 8f3d
00000220: e8a3 b43d abf1 643d aba2 8ebd d37b c33d
00000230: 1a4a cdbb dfb2 733d 408c a43d 955a b5bd
00000240: ae27 bbbd a16c 87bd e7d6 afbd 1951 b33d
00000250: c79d 9cbc a55c dd3c 3cdf 35be 18d2 18bd
00000260: 1413 0c3e c00c 7cbd e427 9a3d d687 143e
00000270: 8dd1 e8bc e302 83bd a298 be3c ec88 adbc
00000280: 574f e23b e986 313c e5c4 efbd 1c0c 4abd
00000290: cca7 053d 595c f1bd ad96 b7bd cb2b 123c
000002a0: 0da0 e4bc a3cb 1abd 96da c1ba 1e3b 5bbc
000002b0: 6398 243d 990f 813d 8a47 933c d80e 3f3e
000002c0: fedb b53b 9a9d 583d 4e89 273c cd3b e23d
000002d0: f0a0 e0bc 4424 1a3a 804c 5c3d 10b2 cb3c
000002e0: be86 d13c a802 9a3d 3bad 673d b36b 3bbd
000002f0: e2c1 6a3e 4b27 033e 134b 043d 6c38 f1bc
00000300: 3110 273d 2db5 1cbc 96da 3bbd ac92 8bbd
00000310: ec15 043c eb1a 96bb cb97 983d 91fc 403e
00000320: 154a 87bd 3c69 12bc 2947 f2bd 5bdd f6bd
00000330: 5844 66bd 69b4 c3bd d39b f63c 27d2 fb3d
00000340: c1fa afbd ab6b 06be abcf 943b 2866 f0bc
00000350: cd63 4abc b1ce 26bd 1f7f 28bd 22ac 983d
00000360: 236b a6bc 309b 06bd e617 0c3e 1a9a 0c3d
00000370: 85c1 b93d abd1 463d f179 18be e46b b63d
00000380: 7730 0ebc 4ff7 003d cc0b 95bd 4635 a7bd
00000390: a699 d8bd c6d6 b3bc 1e6c d4bc 1fef 05bd
000003a0: 6ee9 7dbb 79fd 56bd 441f 9d3b 3bc0 dc3d
000003b0: 8136 1b3e 4d4c cb3c 0cfa 4fbc 3de6 013e
000003c0: f9bc 50bd 317f 1ebd acc9 1e3e 59fe c2bd
000003d0: af72 cc3d 3f21 da3c 1af9 9c3d d49c cf3c
000003e0: 7d13 6dbd c63f 8f3c b183 25be 6e78 943d
000003f0: c2d3 923c fe31 6f3d c819 0abd 1a30 c9bd
0.10135215 -0.057618126 -0.07693669 0.009943264 -0.10332863 0.0521922 0.014071734 0.077933766
0.011672793 -0.05847194 -0.004290727 0.0060729603 -0.107860975 0.031532515 -0.0031107003 0.025584323
0.00930423 -0.017622987 0.027305013 -0.014365237 0.0013060122 -0.13473663 0.05150841 -0.07037296
0.07204647 0.15779251 0.031899866 -0.005769221 -0.23512292 -0.08618238 0.06414157 0.0044563473
-0.117384255 0.086482815 0.19542067 0.063774906 0.095199585 0.050287653 -0.1390798 -0.07185325
-0.13561505 -0.021364916 0.07848994 -0.12779455 0.038640108 -0.018990971 -0.040457398 0.043862008
0.024524448 -0.122557886 -0.09658104 0.039379537 0.039214447 -0.0018503697 0.040097993 -0.08989674
-0.19554712 -0.097069286 0.019669585 0.12645383 -0.16251491 -0.08118298 -0.030527009 -0.07092966
0.03000634 -0.013464539 -0.03531131 0.029332314 0.03144053 -0.09429943 0.099680096 -0.14279093
-0.12761869 -0.07732215 -0.116944194 -0.021737676 0.012342295 -0.06467499 0.17379661 -0.086793184
-0.12079198 0.080436386 0.07181954 0.13321385 0.0029609876 0.05741841 -0.06416878 -0.21252912
0.14357647 -0.10140617 0.13085474 -0.07968987 0.06423839 0.0068791774 0.0809715 0.02801375
0.012202148 -0.048479896 -0.077194944 0.0801646 -0.12474262 -0.1457679 -0.04930135 0.034141637
-0.10543132 -0.10136779 -0.043547016 -0.010107936 -0.020636281 0.0076197134 0.026904332 0.016610049
-0.10645514 -0.07360308 -0.28021443 -0.034027684 -0.11952367 0.04288812 -0.005588096 0.015477964
-0.030347537 0.027688902 -0.0924567 -0.0058844066 -0.043618314 0.017474063 -0.1670162 -0.02012358
-0.07378305 -0.03219913 0.05405 0.116418794 -0.024586875 -0.11002108 0.059294198 0.07014896
0.08820325 0.055894535 -0.0696462 0.09545102 -0.006264937 0.059496757 0.08034563 -0.08855168
-0.09138428 -0.06612516 -0.08585911 0.087557025 -0.019118203 0.027021715 -0.17760938 -0.037309736
0.13679153 -0.061535597 0.0752714 0.14504942 -0.028420234 -0.06397035 0.02326614 -0.021183454
0.0069064307 0.010835388 -0.117074765 -0.049327955 0.032630727 -0.11785192 -0.08964286 0.008921574
-0.02790835 -0.03779186 -0.0014789875 -0.013380794 0.04018439 0.06301803 0.017978448 0.18658006
0.0055499068 0.052884676 0.010225607 0.11046562 -0.027420491 0.0005880038 0.053783894 0.02486518
0.025576945 0.07520038 0.05656169 -0.045757007 0.22925523 0.12807958 0.03229816 -0.02944585
0.040786926 -0.00956468 -0.045862757 -0.06815085 0.008061867 -0.0045808456 0.07450827 0.18846346
-0.06605927 -0.008936223 -0.11829979 -0.12053939 -0.05621752 -0.09555895 0.0301036 0.12295943
-0.085927494 -0.1312701 0.0045413575 -0.029345587 -0.012352896 -0.04072446 -0.041136857 0.07454707
-0.020314759 -0.032862842 0.13680992 0.03432665 0.09070114 0.0485398 -0.14890267 0.08907297
-0.008678547 0.03148585 -0.07277641 -0.08164458 -0.10576181 -0.021952998 -0.02593046 -0.032698747
-0.0038743871 -0.052487824 0.004794987 0.107788526 0.1515751 0.024816656 -0.012693893 0.12685485
-0.05096147 -0.038695518 0.15506619 -0.09521169 0.09982812 0.026627181 0.076647 0.025343336
-0.057879914 0.017486464 -0.16163518 0.07249533 0.01792324 0.058397286 -0.033715993 -0.09823628

4.bias f4 [128]
00000000: 258f c5bd 291c 40bd 9081 89be 5ca0 8ebe
00000010: 864c cfbd 43d2 bebd 603d 44be 8572 15be
00000020: eae3 f3bc ec36 a8bd ed15 e0bd 4459 a5bd
00000030: b5a4 0cbd 5254 1bbe 2297 6bbe f020 19be
00000040: 2d28 0fbe b67a e4bd 0e6f 13be 9e38 d1bd
00000050: 7f56 8cbc 05d9 f0bd 5f2f cabd f8fe 6bbc
00000060: 50ad a1bd 4e5b c5bd 19e4 12bd 4538 063c
00000070: 9314 a8bd a20e 3cbd 2e1a 88be 9105 15be
00000080: 2866 efbd 5e30 b6bd f597 67be 9434 16be
00000090: 88a6 bdbd 3f39 64bc 0b20 dabb d862 49bc
000000a0: 7841 88bd 534e 14be 2f02 51be e6b7 debc
000000b0: 75be 4cbe 1c1b 4fbe 8d2f 3dbe 6b93 3fbe
000000c0: a5b5 a8bd 9b5c bebd 61cd c9bc 8787 36be
000000d0: 6248 fabd 3a4c 95bd c1a3 ab3b 65f0 c9bd
000000e0: d611 d2bd 51aa aabd f9c6 98bd 4e84 93be
000000f0: 5689 7cbd bade 8cbd 11bd f6bd 8795 94be
00000100: 3d3f 29be e0f1 2cbe 6a64 d8bc 7bee 8dbd
00000110: 8117 ecbd ba3b 93bd d85d 30be 9577 00be
00000120: c067 b7bd a5c9 a2bc 427f 3fbe 9534 1dbe
00000130: 4c13 f4bd fb9c 10be 9dd6 91bd 6e42 a93b
00000140: 9cc2 debd c47e 82be 4a82 9dbd 967a e4bd
00000150: 3dd8 38bd 67ee 57be 9987 59bd 158b 2bbd
00000160: 8f6f f1bd ada7 25be fe09 e9bd 8675 2ebd
00000170: 49c8 88bd 31dd 8fbd 6548 50bd 0137 f7bd
00000180: 1218 a6bd 38ca a9bd 6c01 0a3c 04e8 83bd
00000190: 06c8 febd 22b9 41be 6e7b 61be d079 4bbd
000001a0: 207a 03be 2eee 5abd 3b32 29be 18f1 01be
000001b0: a081 c3bc 4832 a1bc 28e6 2ebe 5bdb efbd
000001c0: 157d 11be 9537 26be 123a aabd 566f 8abd
000001d0: 1d6c 3fbe 8e73 26be 2d80 e0bd 0673 60be
000001e0: 2b45 04bd 1fe6 b8bc 17bc 1abe 2f4f d4bd
000001f0: cbe0 03be e029 a5be 9a9f 28be d4a3 bdbd
-0.09646443 -0.046901856 -0.2685666 -0.2785672 -0.101220176 -0.09317448 -0.19164038 -0.14594467
-0.029771764 -0.082136005 -0.10941682 -0.08073667 -0.034336764 -0.15168884 -0.23006871 -0.14953971
-0.1398017 -0.11156218 -0.14397833 -0.10215877 -0.017131088 -0.11760143 -0.098723166 -0.014404051
-0.07894385 -0.096365556 -0.035862062 0.008192127 -0.08207049 -0.045912392 -0.26582474 -0.14552905
-0.11689407 -0.08895944 -0.22616561 -0.14668494 -0.09260279 -0.013929664 -0.006656652 -0.012291633
-0.06653112 -0.14483003 -0.20410989 -0.027187299 -0.19994529 -0.20225185 -0.1847517 -0.18708579
-0.08237771 -0.09295007 -0.024634065 -0.17825137 -0.12220837 -0.0728993 0.005238027 -0.09860305
-0.10257308 -0.083332665 -0.07459826 -0.28811878 -0.06165441 -0.06878419 -0.1204778 -0.2902033
-0.1652803 -0.16889143 -0.026415069 -0.06930252 -0.115279205 -0.07189126 -0.17223299 -0.12545617
-0.089553356 -0.019871542 -0.18700889 -0.1535209 -0.11917743 -0.14122383 -0.07121012 0.0051653897
-0.108769625 -0.2548734 -0.07690866 -0.11156194 -0.045128096 -0.21087037 -0.05310783 -0.041880686
-0.11788856 -0.16177244 -0.11378859 -0.042592548 -0.06678826 -0.07024611 -0.05085029 -0.12071038
-0.0811006 -0.08290523 0.008423191 -0.06440738 -0.12440495 -0.18918279 -0.22019741 -0.049676716
-0.12839556 -0.053449802 -0.16523068 -0.12689626 -0.023865521 -0.019677296 -0.17079985 -0.117117606
-0.14207871 -0.1623214 -0.08311857 -0.06759517 -0.18693586 -0.16255018 -0.109619476 -0.21918878
-0.032292526 -0.022570668 -0.15110813 -0.103666656 -0.1287872 -0.3225851 -0.16467133 -0.09259763

6.weight f4 [12, 128]
00000000: cdff d33c efc0 c93c 8874 cc3c 55a4 87bc
00000010: c10f 05bc 22f8 cf3b e512 813d 3041 07bd
00000020: 1081 b5bd 7de2 d3bc 7dbc 933d 7da9 9a3d
00000030: 57db cfbd b156 f6bb f387 b5b9 8faf 3bbd
00000040: c17b 1a3d 0206 1ebd a804 6e3c 3dbc 2f3d
00000050: 38eb 433d 2f5e 253c 7ea4 e3bb 8ac5 6f3d
00000060: f217 e63b 039c 1dbd 3876 49bc a931 603d
00000070: 0d64 b6bd 54fb 89bd 7bef 643c 8b58 2fbc
00000080: 900e 73bb 2ea0 5d3c acad a63c ac9c 193d
00000090: 4d5c 033d e5a9 72bd 40c5 183d 6a67 023c
000000a0: f8f5 da3c 3ef4 bfbd 708c a0bb 84e2 793c
000000b0: 530e a6bd d114 3f3d 4902 0d3d efcd c2bc
000000c0: eab4 73bd ef98 fdbc 6672 e5bc 6f84 303d
000000d0: f3d9 43bd fd64 6bbc 9cbe a2bd 1d80 2e3d
000000e0: 7cc9 953d 1227 1b3d e78e 6e3c 2196 a93b
000000f0: 00b0 1dbc 0438 913c 978f 02bc 1861 9bbd
00000100: 8437 aaba 33ab 48bd fac0 13bd 646e d63c
00000110: 1a06 5bbd 4ec1 16bc 8e51 163c 7106 cbbb
00000120: fe40 42bb 1143 aabc fc2b 3fbd 3459 9fbc
00000130: defd 3dbc 9b5e e33d 78ad d0bc a3eb 233b
00000140: bcf9 3cbc 6f1a 0ebc d9bc 38bd 8217 27bc
00000150: 2a70 1dbd 0845 873d c6d6 fdbc b32e d1bc
00000160: ae78 a1b9 0500 233c 59cb 913d 85b0 f23c
00000170: 5b4b 66bd 1e90 dc3d cc4b 763c ca2d a2bc
00000180: 0888 283d 55ae e6bb ea23 5fbd 4573 383d
00000190: 6cce 163d 0199 5c3b b2fe 5dbb 0750 d3bc
000001a0: ed68 043d 02e0 8b3c 73c6 e53c cd48 debc
000001b0: bb22 163d 8226 493c fda0 013c 58af 69bd
000001c0: 8572 a63d e8d3 bc3c 8a0f acbd 790c aa3c
000001d0: 0606 123d c456 0e3c 415c 41bd 0f00 01bd
000001e0: d19e ddbd 3798 c23d 1bc1 aa3b 9d7d b13c
000001f0: e521 44bd e353 693c 80c9 8a3d 969a 5a3d
00000200: 07d2 e2bc 050f 8a3d 68c9 c03a 35cd 173d
00000210: 19e8 283d 3108 3aba 615c adba edec 023d
00000220: e5d9 8fbc 577b ac3b 74ec 1abc 0fb1 24bc
00000230: 6fcf 78bd c38d 593d 0317 32bc 26ca 10bd
00000240: 4ad4 53bd 8c5c 2b3d 6b82 d4bc 0ec2 ab3b
00000250: 278a a23c 5349 543d 482e 32bd a19e 0b3c
00000260: f236 06bc 7e76 11bd 933d 2a3c 4546 26bc
00000270: 9e59 3abd 8c34 b93c 3d4a 373d bf90 a23d
00000280: db7a 39bd ed75 e0bc 3962 a1bd c9fd 543c
00000290: 3c1d 36bd 5f66 3d3d 4daa ab3c 285d e5bc
000002a0: 1f33 07bd 16c3 e9bb 10a2 1e3d 89e8 823c
000002b0: 35fd 1dbc cb92 193e ebb6 84bc 48bd 28bd
000002c0: 504f 49bd 9ae6 0ebc a96a 053c 8005 e4bd
000002d0: fc5d ba3d 6d75 b2bc eb5d 18bb 57c2 1c3d
000002e0: f5e2 e43d 71d0 1e3c 3115 78bd 13a8 81bd
000002f0: 208a f6bb 3df3 8c3d f333 f4bc f7b6 593d
00000300: 444d 9f3c ce75 c039 12e0 abbd ea4b 9d3c
00000310: 96e7 2c3c fe0c 9f3b 6925 413d 1b5a 0b3d
00000320: 24f3 fabd c877 e4bc 575d e43c cd29 2bbc
00000330: d068 393d bece 5ebd b2e4 b1b8 a043 103d
00000340: d91f 673c 6a11 503d ea05 573d 17ef 333c
00000350: 104f 48bd c4a9 093e 9273 fe3c ecfc 90bd
00000360: 0755 0bbd 64a3 01bd e108 c83a 7476 8bbc
00000370: 8c93 da3c d316 cc3c 37a9 99bc 3d85 4fbc
00000380: 7992 5b3d b417 573c b416 55bd 3955 acbc
00000390: f7a2 e8bc b914 c63c 602b c1bd 99b3 333d
000003a0: 080e cf3c 1979 e23a 161e 3cbd ca1b de3c
000003b0: 072b 9c3c 09f0 3bbc f858 2dbd 32b1 9b3c
000003c0: ff9d e9bd b672 22bd 5860 a5bd fdd9 0bbd
000003d0: 17eb 6dbd 8151 db3c 8068 cebd 70e5 5f3b
000003e0: 7966 733d bbf7 0cbc d8e4 65bd 4584 84bd
000003f0: 655b b8bc 0e87 913d 1787 ecbc e5d8 52bd
0.025878811 0.02462813 0.02495791 -0.016557852 -0.008121432 0.0063467184 0.06302432 -0.033021152
-0.08862507 -0.025864834 0.07213686 0.075518586 -0.10149258 -0.0075176586 -0.000346243 -0.045821723
0.037715677 -0.03857995 0.014527477 0.042904127 0.047831744 0.010093256 -0.006947099 0.058537997
0.0070218975 -0.038478862 -0.012296252 0.05473486 -0.08905802 -0.0673739 0.013973112 -0.010702263
-0.0037087537 0.013526959 0.020346485 0.03750293 0.032070447 -0.059244055 0.037297487 0.007959226
0.026728615 -0.093727574 -0.004899554 0.015251759 -0.08108201 0.04665071 0.034426007 -0.023779837
-0.059498705 -0.030956713 -0.028008651 0.04309505 -0.047815274 -0.014367339 -0.07946512 0.042602647
0.07313821 0.037879057 0.014560438 0.0051753675 -0.009624481 0.017726906 -0.007968805 -0.075868785
-0.0012986516 -0.048991393 -0.03607271 0.026175685 -0.053472616 -0.009201361 0.009174718 -0.0061958362
-0.002964079 -0.020783933 -0.046672806 -0.019451715 -0.011596171 0.11102029 -0.025473341 0.0025012277
-0.011534151 -0.008673294 -0.045101974 -0.010198476 -0.038437046 0.066049635 -0.030986201 -0.025534963
-0.00030798226 0.009948735 0.071188636 0.029625187 -0.05622421 0.10769676 0.01503272 -0.019797225
0.041145355 -0.007039825 -0.05447761 0.045031805 0.036817953 0.0033660533 -0.0033873734 -0.025794996
0.032326628 0.017074589 0.02804873 -0.027134323 0.036654215 0.012277247 0.007911918 -0.057051986
0.081273116 0.023050264 -0.08401401 0.0207579 0.035650276 0.008687679 -0.04720712 -0.031494197
-0.108213075 0.09501689 0.0052110082 0.021666342 -0.047883887 0.014241192 0.06776714 0.05337008
-0.02768804 0.06741146 0.0014708461 0.037060935 0.04123697 -0.00070965575 -0.0013226384 0.03196423
-0.017559955 0.0052637267 -0.009455789 -0.01005198 -0.0607447 0.05311371 -0.010869744 -0.035349034
-0.051716127 0.041836306 -0.025941094 0.005241639 0.019841267 0.05182774 -0.04350117 0.008521707
-0.008191811 -0.035513394 0.010390657 -0.0101485895 -0.04549562 0.022608064 0.044748534 0.079377644
-0.04528318 -0.027399981 -0.078800626 0.01299996 -0.044461474 0.046240207 0.02095523 -0.027998522
-0.033007737 -0.0071338518 0.038728774 0.015980022 -0.009642889 0.14997403 -0.016200503 -0.041196138
-0.049147904 -0.008721972 0.008143106 -0.111338615 0.09099957 -0.021784509 -0.002324934 0.038271274
0.11176101 0.009693251 -0.060567085 -0.06330886 -0.00752379 0.068823315 -0.029809928 0.053153004
0.019446023 0.00036708865 -0.083923474 0.019201238 0.010553261 0.0048538437 0.047154818 0.03402148
-0.12253407 -0.027889147 0.02787654 -0.010446978 0.045265973 -0.054396383 -8.4826155e-05 0.035220742
0.014106714 0.050797857 0.052495874 0.010982296 -0.048903525 0.13443667 0.031060968 -0.07079491
-0.034016635 -0.031649962 0.0015261435 -0.017024256 0.026681684 0.024913227 -0.018757446 -0.012666044
0.053606484 0.01312821 -0.052023605 -0.021036731 -0.02839802 0.024179803 -0.09432101 0.04387245
0.025275245 0.0017278522 -0.04592713 0.02711286 0.019063486 -0.011470803 -0.042321175 0.019005392
-0.114070885 -0.039660178 -0.08075017 -0.034143437 -0.058085527 0.026772263 -0.100785255 0.0034163855
0.059423897 -0.008603985 -0.056126446 -0.06470541 -0.022504518 0.07105838 -0.02887301 -0.051476378

6.bias f4 [12]
00000000: b5e5 1abe 59dc 00bd 876d 863d 5c72 6b3d
00000010: f69c 3b3d f5a5 66bd 5fa7 22be 8e6a cc3c
00000020: ef2d 11bd bdee dcbd 0c61 ac3d 3164 493c
-0.15126689 -0.03146014 0.065638594 0.05748211 0.045803986 -0.056310613 -0.1588416 0.024953153
-0.035444196 -0.10787723 0.08416948 0.012291954
