onnx/policy_1200.onnx (onnx, 758221 bytes, 8 tensors)

0.weight f4 [512, 45]
0	0x3b804fe9	0.003915776
1	0x3cbe0bb2	0.023198936
2	0x3dfd44fe	0.12366675
3	0xbeafbbd8	-0.34323
4	0x3dbd3acf	0.092397325
5	0x3d5e5d2f	0.054288086
6	0x3d9a5caf	0.07537209
7	0xbd1794c9	-0.037007127
8	0x3f50fd31	0.8163634
9	0x3c962a01	0.018330576
10	0xbcd2c3d1	-0.025728138
11	0x3db2dd16	0.08733575
12	0x3e8efe2b	0.2792829
13	0x3ec1e085	0.37866607
14	0x3f230207	0.6367497
15	0x3e9e5710	0.30925798
16	0x3e60aeda	0.219417
17	0x3e2052a1	0.1565652
18	0xbe34d487	-0.17659198
19	0x3f05163a	0.5198704
20	0xbe341305	-0.1758538
21	0xbe817afd	-0.25289145
22	0x3e478a60	0.1948638
23	0xbe079a49	-0.13242449
24	0x3ccc0433	0.024904346
25	0xbfc5fbd3	-1.5467476
26	0xbde9641a	-0.11396046
27	0xbf610ace	-0.8790711
28	0x3e99f707	0.3007128
29	0xbe85ce66	-0.26134032
30	0xbec0174f	-0.37517783
31	0xbe590cc6	-0.21196279
32	0x3e7df905	0.24802025
33	0xbb3e7830	-0.0029063337
34	0x3c1f4250	0.0097204
35	0xbc865d0e	-0.016401794
36	0x3cc65e1e	0.0242148
37	0x3c55f830	0.013059661
38	0x3c7820f6	0.015144577
39	0xbc079c3d	-0.008276996
40	0xbcaa25c3	-0.02076996
41	0xbb63b5fb	-0.003474592
42	0xbcd6fd6b	-0.026243886
43	0xbbf2a9c1	-0.00740549
44	0x3caada03	0.02085591
45	0x3ead9ac6	0.33907145
46	0xbdd0ee99	-0.10201759
47	0x3de1309a	0.10995598
48	0xbf77017c	-0.9648664
49	0x3d8a8c76	0.06765072
50	0xbd643935	-0.05571862
51	0x3c2e1952	0.010626154
52	0x3cfc4a02	0.030797008
53	0xbe337863	-0.17526393
54	0x3ee0cef6	0.439079
55	0x3f4c875b	0.79894036
56	0x3f16b054	0.58862805
57	0x3ec1e38b	0.37868914
58	0x3f15bae1	0.5848828
59	0x3e277653	0.16353731
60	0xbe520297	-0.205088
61	0xbecf07b5	-0.40435567
62	0xbc177349	-0.009243795
63	0xbe748e26	-0.2388235
64	0xbf1b1665	-0.60581046
65	0xbe406f93	-0.18792562
66	0x3e8ab635	0.27092138
67	0xbf2d2070	-0.6762762
68	0x3e92818c	0.2861446
69	0xbed0964e	-0.40739673
70	0x3f985d45	1.1903464
71	0x3eccc343	0.39992723
72	0x3f9a3f3c	1.2050548
73	0x3f4f58e5	0.8099502
74	0x3df05e53	0.11736741
75	0x3f473153	0.7780964
76	0xbecaa015	-0.39575258
77	0xbf6fdfae	-0.93700683
78	0x3ce70413	0.028200185
79	0x3d39c162	0.04535044
80	0xbd77d5ad	-0.06050651
81	0x3d2c1035	0.042007644
82	0xbd3543ca	-0.0442541
83	0x3d273dda	0.04083047
84	0x3c401c5f	0.011725514
85	0xbd816027	-0.06317168
86	0x3d915a00	0.07097244
87	0x3d23f74a	0.040030755
88	0xbd2b80d6	-0.041870914
89	0x3ca899a8	0.020581082
90	0xbe75da0b	-0.24008958
91	0xbdcd7970	-0.10032928
92	0x3d8848cf	0.06654512
93	0xbe7d49f2	-0.24735239
94	0x3d98ee2a	0.07467301
95	0xbde59011	-0.11209119
96	0x3cd2bc02	0.025724415
97	0x3c470c36	0.012148907
98	0xbe9b5ff5	-0.30346647
99	0xbe30d8e2	-0.17270234
100	0xbe6273bd	-0.22114463
101	0x3f45f992	0.7733394
102	0xbdd7fd74	-0.10546389
103	0x3e4456b8	0.19173706
104	0xbea83a73	-0.32857093
105	0x3dafadd6	0.085780784
106	0xbee54e59	-0.44786337
107	0x3d9fd6b9	0.07804627
108	0xbed78be5	-0.4209892
109	0x3e68e85f	0.22744893
110	0xbe5fd676	-0.21859154
111	0x3f339550	0.7014971
112	0xbe166881	-0.14688303
113	0xbe8abf87	-0.2709925
114	0xbf92b0fc	-1.1460261
115	0x3f348ee7	0.7053055
116	0x3e148871	0.14505173
117	0x3ea88f47	0.32921812
118	0xbeeed5b9	-0.46647432
119	0xbf28c36d	-0.65923196
120	0xbe969c31	-0.2941604
121	0xbf08c37f	-0.53423303
122	0xbf6f0cc2	-0.9337884
123	0xbc55cf65	-0.013049935
124	0x3c943f91	0.018096717
125	0xbd49250e	-0.049107604
126	0x3d172664	0.036901847
127	0xbd245e49	-0.04012898
128	0xbce76635	-0.028246978
129	0xbc952195	-0.01820449
130	0x3cedc823	0.029026097
131	0x3ba405be	0.0050055673
132	0x3bab19a6	0.0052215634
133	0xbcca7081	-0.02471185
134	0xbc232170	-0.009956703
135	0x3e9fada7	0.31187174
136	0x3e3eb6e7	0.18624459
137	0xbe2e90b8	-0.17047393
138	0xbeb08486	-0.34476107
139	0x3f01677c	0.5054853
140	0x3d9ab7dc	0.075546
141	0xbe19fe83	-0.15038495
142	0x3dcc65ba	0.0998034
143	0xbe3c2069	-0.18371738
144	0x3e37f557	0.17964683
145	0xbd92043e	-0.071297154
146	0x3e716afa	0.23575965
147	0xbf9b090d	-1.2112137
148	0xbdcdc4d2	-0.10047306
149	0x3f071d6f	0.5277929
150	0xbf12792a	-0.5721613
151	0x3eb96f99	0.36217955
152	0x3e024948	0.12723267
153	0x3d0e8e86	0.03480389
154	0xbe19922a	-0.14997163
155	0xbccd51bd	-0.02506339
156	0x3ee2c386	0.44289798
157	0x3f27c0f9	0.6552883
158	0x3e55324a	0.20819965
159	0xbf734a13	-0.95034903
160	0x3ebbb6e2	0.36662966
161	0xbe2d2706	-0.16909418
162	0x3e54f7dd	0.20797677
163	0x3f010819	0.5040298
164	0xbe26c058	-0.16284311
165	0xbe251d5b	-0.1612448
166	0x3e8dea5f	0.27717873
167	0xbef181ad	-0.47169247
168	0xbcbabedc	-0.022796087
169	0xbc4dab5a	-0.01255306
170	0xbd0fccf4	-0.035107568
171	0x3c1f7edd	0.009734836
172	0x3d0dbe5d	0.034605373
173	0x3d66c93d	0.05634426
174	0xbd2e0644	-0.042486444
175	0x3ba597cb	0.0050534955
176	0xbdb30010	-0.08740246
177	0xbdac9988	-0.08427721
178	0x3d160e08	0.036634475
179	0x3d5f7ce4	0.054562464
180	0x3d9ee5f8	0.07758707
181	0xbbdd8893	-0.0067606657
182	0xbdef71ba	-0.116916135
183	0x3ec14a67	0.37752077
184	0xbf00ecb2	-0.5036117
185	0x3c6a4920	0.014299661
186	0xbdc6c4de	-0.09705518
187	0xbe0e7457	-0.13911568
188	0x3e901acb	0.2814544
189	0xbf691e65	-0.91062003
190	0xbf0eb25b	-0.557409
191	0xbe0cdd9d	-0.13756414
192	0xbd9aefc1	-0.07565261
193	0xbe7ca4f9	-0.24672307
194	0xbefd1137	-0.49427196
195	0x3f798758	0.97472143
196	0x3f76fb3c	0.96477103
197	0xbe9d994e	-0.30781025
198	0x3ed21ec9	0.41039112
199	0x3e24dc4b	0.1609966
200	0x3ed2384a	0.4105857
201	0xbe97965d	-0.29606906
202	0x3eacf56b	0.3378099
203	0xbddf3733	-0.108992
204	0xbf101c00	-0.56292725
205	0x3ea24d6d	0.31699696
206	0x3f44662a	0.7671839
207	0x3f298ab8	0.66227293
208	0xbf174e55	-0.591039
209	0xbdc7a4dd	-0.09748242
210	0xbf8f33de	-1.1187704
211	0xbeb18911	-0.34674886
212	0xbe244ce8	-0.16044962
213	0x3c3b6ab8	0.011439018
214	0x3b3d84b3	0.0028918206
215	0xbca3ed3d	-0.020010585
216	0x3c3fba9d	0.011702207
217	0x3ba5c0a2	0.005058364
218	0x3c9def7d	0.019279236
219	0xbc6598cb	-0.014013479
220	0xbcc91ee0	-0.024550855
221	0xbc274f51	-0.010211782
222	0x3cd28c06	0.025701534
223	0x3c751988	0.0149597
224	0xbbcf8324	-0.006332772
225	0xbe40f266	-0.18842468
226	0xbe39ce53	-0.18145113
227	0xbe8571b5	-0.26063314
228	0xbe7070f6	-0.23480591
229	0xbe19b29a	-0.15009537
230	0x3ce13cf0	0.027494878
231	0x3df1a9ec	0.11799988
232	0xbe88bbf6	-0.26705903
233	0x3d4b97ee	0.04970544
234	0xbf2b8dac	-0.6701305
235	0xbf6a40bd	-0.9150503
236	0x3d9d3c9d	0.07677577
237	0x3e0d3298	0.13788831
238	0xbe815c63	-0.25265798
239	0xbd912d62	-0.07088734
240	0xbd8f5af3	-0.06999769
241	0x3d2c24e2	0.04202736
242	0xbec5082d	-0.384828
243	0xbdf48644	-0.11939672
244	0x3e4b39a8	0.19846213
245	0x3ccaee41	0.024771811
246	0x3edf168b	0.43571886
247	0x3da23185	0.07919601
248	0xbee5f285	-0.4491159
249	0xbf82709d	-1.0190617
250	0xbf212e2b	-0.6296107
251	0xbe8aaeb9	-0.27086428
252	0x3e8cee96	0.27525777
253	0x3d977e35	0.07397119
254	0xbf5e50c4	-0.8684199
255	0xbeeb7162	-0.45984942

0.bias f4 [512]
0	0x3ce344ce	0.02774277
1	0x3a56c291	0.0008192445
2	0xbde4dfb3	-0.1117548
3	0xbd550b2a	-0.0520126
4	0x3d453d63	0.048154246
5	0xbde737ad	-0.11289916
6	0x3d8ad509	0.067789145
7	0x3c111e46	0.008857315
8	0xbdfd3fab	-0.12365659
9	0xbe41bc90	-0.18919587
10	0xbc9d5851	-0.019207152
11	0xbe0fd063	-0.14044337
12	0x3c44b034	0.012004901
13	0xbc7fa966	-0.015604353
14	0xbd9a1e17	-0.075252704
15	0x3c6e47bf	0.014543473
16	0x3d741ef8	0.059599847
17	0xbdc465d9	-0.095897384
18	0x3d2470b9	0.040146563
19	0xbde3c91f	-0.11122345
20	0xbc864c7a	-0.016393889
21	0xbd76e8e7	-0.060280707
22	0x3d8df855	0.06932131
23	0x3d91a8af	0.07112252
24	0xbdbfdabe	-0.09367894
25	0xbd0cf627	-0.034414437
26	0x3d553e93	0.05206163
27	0xbd921fce	-0.071349725
28	0x3d5f79ea	0.054559626
29	0xbe132cf4	-0.14372617
30	0xbe10a937	-0.1412705
31	0x3d137bb0	0.03600663
32	0xbe3a3586	-0.1818448
33	0xbc959938	-0.018261537
34	0xbe89c15e	-0.2690534
35	0xbddcc7d0	-0.10780299
36	0xbe0ae5df	-0.13564251
37	0x3d2869e9	0.04111663
38	0x3c872abe	0.016499873
39	0x3c4481d8	0.011993848
40	0x3d88fd0c	0.0668889
41	0xbd03712f	-0.032090362
42	0x3d809297	0.0627796
43	0x3e7697ba	0.24081317
44	0xbc42a854	-0.011880953
45	0x3ccbb631	0.02486715
46	0xbda0fccb	-0.078607164
47	0xbe318017	-0.17334019
48	0xbb598470	-0.0033190511
49	0x3e14de6a	0.14537969
50	0xbd8afc5b	-0.06786414
51	0x3daeed65	0.08541373
52	0x3ccac390	0.024751455
53	0xbdbfb298	-0.09360236
54	0xbe2779f4	-0.16355115
55	0x3e01bf06	0.12670526
56	0xbdad21f8	-0.08453745
57	0x3e21bee1	0.15795471
58	0x3e4cf721	0.20016147
59	0x3de34a3f	0.11098146
60	0x3dfcb1fa	0.12338634
61	0xbbcca406	-0.006245139
62	0x3d8efe15	0.06982056
63	0xbe348d3d	-0.17632003
64	0x3d9545f2	0.07288732
65	0xbe179989	-0.14804663
66	0xbe222ceb	-0.15837447
67	0xbc51ac42	-0.012797417
68	0xbe232b1a	-0.1593441
69	0x37e473b0	2.723359e-05
70	0x3d7f514d	0.062333394
71	0xbd1816d0	-0.03713113
72	0xbd81c56c	-0.06336483
73	0xbe072b7b	-0.1320018
74	0xbe4528c9	-0.1925384
75	0xbe0db1f3	-0.13837413
76	0xbe867da8	-0.26267743
77	0xbd604011	-0.0547486
78	0x3cde7337	0.027154548
79	0x3ceb5ece	0.02873173
80	0x3df1190c	0.117723554
81	0x3d45ce37	0.048292365
82	0xbe04af1e	-0.12957427
83	0xbe269333	-0.1626709
84	0x3d834bdf	0.06410956
85	0x3a84dcd3	0.0010136612
86	0xbd94cab1	-0.07265223
87	0xbd994931	-0.07484663
88	0xbe047b25	-0.12937601
89	0x3d200b7a	0.039073445
90	0xbd9bcd2e	-0.07607494
91	0x3cd28b7f	0.025701283
92	0xbe6e4f48	-0.23272431
93	0xbdf545fa	-0.119762376
94	0xbb918354	-0.0044407044
95	0x3bf12956	0.007359664
96	0xbca2e314	-0.01988367
97	0xbd4737cd	-0.0486372
98	0xbd44c5ae	-0.048040085
99	0x3cbcbb8a	0.023038644
100	0xbe68c44b	-0.2273113
101	0x3d18c911	0.037301127
102	0xbd932941	-0.07185603
103	0xbd8121f5	-0.06305305
104	0x3d3eb9dc	0.046563968
105	0xbc6b0398	-0.014344119
106	0xbe0f9b46	-0.14024076
107	0xbd0d0877	-0.0344319
108	0xbe1b441d	-0.15162702
109	0xbd651595	-0.055928785
110	0x3e2943af	0.16529725
111	0x3d91ddec	0.07122406
112	0xbd50510b	-0.05085854
113	0x3db672fc	0.0890865
114	0x3d80c794	0.062880665
115	0x3d749a35	0.059717376
116	0x3da83a76	0.082142755
117	0xbea81eb4	-0.32835925
118	0xbd085546	-0.033284448
119	0xbe7b2eb5	-0.24529536
120	0xbe8450eb	-0.25842986
121	0xbde1cbb2	-0.1102518
122	0x3dfb3483	0.12265875
123	0xbe275dbf	-0.16344355
124	0x3e4e81bc	0.20166677
125	0xbc27ab2b	-0.010233681
126	0xbdc96bb3	-0.09834995
127	0xbe2502e2	-0.16114381
128	0x3d845ff1	0.06463612
129	0x3daeacad	0.08529029
130	0xbe0ef2d5	-0.1395982
131	0xbe1ba967	-0.1520134
132	0x3df1e214	0.11810699
133	0x3d984563	0.074351095
134	0xbb6fdd06	-0.0036600246
135	0xbeacdd16	-0.33762425
136	0x3c4bd444	0.012440745
137	0xbc8a9073	-0.016914582
138	0x3d49d29b	0.049273115
139	0xbc1c4a0a	-0.009539137
140	0xbd9a35e7	-0.07529812
141	0xbd98bba4	-0.074576646
142	0x3dbddfcb	0.09271201
143	0xbdbc0a75	-0.09181682
144	0x3df83aa5	0.121205606
145	0x393a79fe	0.00017783788
146	0xbdd3ae99	-0.10336036
147	0x3c966050	0.018356472
148	0x3d97b473	0.07407465
149	0x3e0c1dae	0.13683197
150	0xbe4d0954	-0.2002309
151	0xbd08bce3	-0.03338326
152	0x3d45ee2c	0.04832284
153	0xbe3af9ee	-0.18259403
154	0xbd2354ab	-0.039875668
155	0xbd1e08b6	-0.038582526
156	0xbcae8ba2	-0.021306816
157	0x3ddd6d77	0.108118944
158	0xbe0e17c9	-0.13876261
159	0x3d8d5657	0.06901234
160	0x3d3a0805	0.045417804
161	0xbe150626	-0.14553127
162	0x3afed487	0.0019442
163	0x3dfe2b2b	0.124105774
164	0xbe0b8ea5	-0.13628633
165	0xbdf407a1	-0.119155176
166	0xbca4b727	-0.020106865
167	0x3df27208	0.11838156
168	0xbe5ca214	-0.21546203
169	0xbd04ea12	-0.03244979
170	0x3dae5b1f	0.08513474
171	0xbe4af215	-0.1981891
172	0x3dfafa0b	0.12254723
173	0xbda53d95	-0.080683865
174	0x3d3795af	0.044820484
175	0x3d58cc1f	0.05292904
176	0x3cdb99e6	0.026806783
177	0xbdd080e9	-0.10180838
178	0xbd0dabd9	-0.034587715
179	0xbd98fe83	-0.07470419
180	0xbcf31e14	-0.029677428
181	0xbd3fad3f	-0.04679608
182	0xbe594927	-0.21219312
183	0xbe54b3ac	-0.20771664
184	0x3df94053	0.12170472
185	0x3d7cd3ef	0.061725553
186	0xbe489b06	-0.19590387
187	0x3da66469	0.081246205
188	0xbd5ce0e2	-0.053925402
189	0xbd721734	-0.05910416
190	0xbc9cf253	-0.019158518
191	0xbd03ec56	-0.03220781
192	0x3b00d9ef	0.0019661149
193	0x3d2ce631	0.042211715
194	0xbd7d39b2	-0.0618226
195	0xbe2f1722	-0.17098668
196	0x3d8294e8	0.06376058
197	0xbcdab25e	-0.02669638
198	0x3e319b41	0.17344381
199	0xbe1cae93	-0.1530097
200	0xbdb78ad9	-0.0896203
201	0xbcab5885	-0.020916233
202	0xbe58012b	-0.21094196
203	0xbd9b0473	-0.07569208
204	0x3df95bc8	0.12175709
205	0x3e00dc4e	0.1258404
206	0xbcdf96fe	-0.027293678
207	0xbc7bb88b	-0.015363823
208	0xbe4428d2	-0.19156197
209	0xbd8cc05c	-0.06872627
210	0xbd4723db	-0.04861818
211	0xbbb436a5	-0.005499678
212	0x3dcbcbd0	0.099509835
213	0xbde20518	-0.11036128
214	0x3d86a222	0.06573893
215	0xbc73496e	-0.01484905
216	0xbd393a8d	-0.045221854
217	0x3d5ac022	0.05340589
218	0x3d88bef2	0.06677045
219	0xbb4ce95d	-0.0031267025
220	0x3d3736ac	0.044729874
221	0xbe0f009e	-0.13965079
222	0xbda9a82b	-0.082840286
223	0xbd290fa2	-0.041274674
224	0x3da27ca8	0.079339325
225	0xbe32236e	-0.17396328
226	0xbe841966	-0.25800627
227	0x3db7024a	0.089359835
228	0x3cbbcd75	0.022925118
229	0xbde960d7	-0.11395424
230	0xbe0002d7	-0.12501083
231	0x3b9b7f5b	0.0047454066
232	0xbc6506b5	-0.01397865
233	0xbc92d39d	-0.01792317
234	0xbe584aaf	-0.2112224
235	0xbdfc3300	-0.12314415
236	0xbe3de846	-0.18545637
237	0x3d8bac12	0.06819929
238	0xbc156646	-0.009118622
239	0x3cb646d1	0.022250565
240	0xbe493f39	-0.19653024
241	0x3c3f621c	0.011681106
242	0x3d3c1e31	0.04592723
243	0xbe00506d	-0.1253068
244	0xbd1b4527	-0.037907746
245	0x3bd11900	0.006381154
246	0xbe3685e0	-0.17824507
247	0x3e21e959	0.15811671
248	0xbcbab1ad	-0.0227898
249	0x3d8bb8d4	0.068223625
250	0x3c8f900d	0.017524743
251	0x3d328436	0.043583117
252	0xbd2d5515	-0.04231747
253	0xbe1a93b6	-0.1509541
254	0xbdaa30ff	-0.083101265
255	0x3e0989d6	0.13431486

2.weight f4 [256, 512]
0	0xbd25f75f	-0.040519115
1	0x3cbaf8b0	0.022823662
2	0x3d39a5d1	0.04532415
3	0xbdc2feda	-0.09521265
4	0xbde500a3	-0.11181762
5	0xbbcfc32a	-0.006340404
6	0xbd555a9f	-0.052088376
7	0x3dd61f3f	0.104551785
8	0x3e9219d1	0.2853532
9	0x3d1ea552	0.03873188
10	0x3c438fc8	0.011936136
11	0xbbe80a13	-0.007081279
12	0xbe039b65	-0.12852247
13	0xbddcd1c8	-0.107822
14	0x3e9c7a11	0.3056188
15	0xbdf91e6a	-0.12164004
16	0xbda88506	-0.08228497
17	0x3d474803	0.04865266
18	0xbc3f9595	-0.011693378
19	0xbd304ab0	-0.043039978
20	0x3c16691c	0.009180333
21	0x3deddaba	0.116139844
22	0xbde56260	-0.11200404
23	0xbbcf3fc3	-0.0063247397
24	0x3ddc257e	0.107493386
25	0x3db0105e	0.08596872
26	0xbe18f649	-0.149377
27	0xbda6518f	-0.08121025
28	0x3e0ee314	0.13953811
29	0xbce7ca2f	-0.02829465
30	0x3e6520b9	0.22375764
31	0xbcb03ada	-0.021512438
32	0xbda853c1	-0.082191
33	0x3df1c54e	0.11805211
34	0x3df05bd0	0.11736262
35	0xbe61b798	-0.22042692
36	0x3e870c64	0.2637664
37	0xbe971977	-0.29511616
38	0xbd5562cd	-0.052096177
39	0x3d97c877	0.074112825
40	0xbd95fa56	-0.073231384
41	0x3dd31629	0.10306961
42	0xbe21947a	-0.15779296
43	0xbe34c4ad	-0.17653151
44	0xbd4d7b05	-0.05016615
45	0xbd90db17	-0.07073038
46	0xbdb58cfd	-0.08864782
47	0x3e1ce113	0.15320234
48	0xbdf38f86	-0.11892609
49	0x3d0946df	0.033514854
50	0x3dfb720a	0.122776106
51	0xbbff37ea	-0.007788648
52	0xbdf89bd6	-0.12139098
53	0xbdd7a865	-0.105301656
54	0xbdf7bf42	-0.120970264
55	0xbdca9f13	-0.09893622
56	0x3ebddeef	0.37084147
57	0xbcaeb1d5	-0.021325031
58	0x3c2078db	0.009794439
59	0x3d6193dc	0.05507265
60	0x3dc521bf	0.09625577
61	0x3dcf4deb	0.101222835
62	0xbe2ed8ae	-0.17074844
63	0xbe0a5207	-0.13507853
64	0x3d87eac9	0.066365786
65	0x3c7dad07	0.015483147
66	0xbdab8cce	-0.08376466
67	0xbe0f4bc5	-0.13993748
68	0x3e23cd7a	0.15996352
69	0x3d9e9d4b	0.07744845
70	0xbe5a81f2	-0.21338633
71	0xbe3714a6	-0.1787897
72	0xbc9e35cf	-0.019312767
73	0x3dbfea99	0.09370918
74	0x3e575386	0.21027955
75	0xb9f57864	-0.0004681974
76	0x3e0de092	0.13855198
77	0xbe324f2a	-0.17413011
78	0x3cd04f6b	0.025428494
79	0xbdf9a553	-0.12189736
80	0xbdf06988	-0.117388785
81	0xbd2114e6	-0.03932657
82	0xbb093cb5	-0.0020940725
83	0x3de44547	0.11146026
84	0x3d4fefbf	0.05076575
85	0x3e1fe3e4	0.15614277
86	0xbca19966	-0.019726466
87	0x3dce3055	0.10067812
88	0x3e3b3ca5	0.18284853
89	0xb90f4bba	-0.00013665753
90	0xbe0b0c0f	-0.13578819
91	0x3ceed7cd	0.029155636
92	0x3de7d370	0.113196254
93	0x3cb3548a	0.021890897
94	0x3df409c6	0.11915927
95	0xbcbaa215	-0.022782365
96	0x3e0ee7e0	0.13955641
97	0xbc3a2f81	-0.011363865
98	0x3bbee10d	0.005825168
99	0xbe14ef34	-0.14544374
100	0x3d60c33e	0.054873697
101	0xbe398991	-0.18118884
102	0x3b7322b2	0.0037099537
103	0xbd4f196e	-0.05056136
104	0xbe08b0ac	-0.13348645
105	0xbe11e472	-0.14247301
106	0x3e3d8f24	0.18511635
107	0x3ceb61b8	0.02873312
108	0xbd608d09	-0.054822
109	0xbdd84b5a	-0.10561247
110	0x3d68ff00	0.056883812
111	0xbc442541	-0.011971773
112	0x3ddf8b66	0.1091526
113	0x3d307924	0.04308428
114	0xbd0fc134	-0.035096362
115	0xbda3541a	-0.079750255
116	0x3e137f32	0.1440399
117	0x3dec841a	0.11548634
118	0x3e54c1f2	0.2077711
119	0x3dbfdb53	0.09368005
120	0xbd5752f9	-0.052569363
121	0x3d9b3f4c	0.07580432
122	0x3c9097d3	0.01765052
123	0x3d6a12ee	0.05714696
124	0x3e02f71b	0.12789576
125	0x3d75e315	0.060031015
126	0x3dd9a03a	0.10626264
127	0x3df31c92	0.11870684
128	0xbe808da2	-0.25108057
129	0x3dc0d59d	0.094157435
130	0x3d469374	0.048480466
131	0x3cb77fd6	0.022399824
132	0xbc54e39e	-0.012993721
133	0xbe2e006c	-0.16992348
134	0x3df38c9f	0.11892056
135	0x3e886f4d	0.26647416
136	0x3c3c6322	0.0114982445
137	0xbe3a8fb2	-0.18218878
138	0xbda00cd6	-0.07814948
139	0xbe1ff360	-0.15620184
140	0xbda75094	-0.08169666
141	0x3d3c0628	0.04590431
142	0x3d968f8a	0.07351597
143	0x3d79dc5c	0.061001167
144	0xbe57c582	-0.21071437
145	0x3d76d145	0.06025817
146	0x3e407806	0.18795785
147	0xbaf9a017	-0.0019044903
148	0xbd5f4b20	-0.054515004
149	0x3d827967	0.06370812
150	0x3e185e55	0.14879735
151	0xbe0ba724	-0.13637978
152	0xbda5ddd7	-0.08098953
153	0xbdad7940	-0.08470392
154	0x3d7a47e0	0.0611037
155	0xbd6310c8	-0.055435926
156	0xbd732e4f	-0.059370335
157	0xbc4b5006	-0.012409216
158	0x3dccd865	0.100022115
159	0x3e1c0bd6	0.1523889
160	0xbc1d946f	-0.009617909
161	0x3e5f10ee	0.21783802
162	0x3da82467	0.08210068
163	0xbdb44b71	-0.08803452
164	0x3c77f45d	0.015133944
165	0x3e2a584b	0.16635244
166	0xbdba7314	-0.09103981
167	0xbd448edc	-0.047987804
168	0x3bcd8885	0.006272378
169	0x3db5ab3b	0.0887055
170	0x3d7852f8	0.060626
171	0x3d2e418c	0.04254298
172	0x3d37cb67	0.044871714
173	0xbdd5a237	-0.10431331
174	0x3e32f29f	0.17475365
175	0xbe88b047	-0.2669699
176	0x3d3d322f	0.046190437
177	0x3dec4e87	0.115384154
178	0xbdb6ae04	-0.089199096
179	0x3cef5ff5	0.02922056
180	0xbe429cd6	-0.1900514
181	0xbcbc8fc7	-0.023017777
182	0x3d08f9bc	0.03344129
183	0x3c81af40	0.015830636
184	0xbd6dc82d	-0.05805223
185	0xbe99c72d	-0.30034772
186	0x3e356942	0.17715934
187	0x3d2bc829	0.041938934
188	0xbde31f88	-0.110899985
189	0x3c2f4342	0.010697188
190	0xbe17ebf3	-0.14836101
191	0x3c54b623	0.012982878
192	0x3e4b08b8	0.19827545
193	0xbdea9ddb	-0.1145589
194	0x3dce7a23	0.100818895
195	0xbd2d7999	-0.042352293
196	0xba7fa970	-0.0009752726
197	0xbe432d7d	-0.19060321
198	0x3cc3f308	0.023919597
199	0xbd023e89	-0.03179792
200	0x3dd5683c	0.10420272
201	0x3e66628a	0.22498527
202	0x3d3100d7	0.04321369
203	0x3d7ef52c	0.062245533
204	0xbb3b7930	-0.002860617
205	0xbe1e6a7d	-0.1547031
206	0xbddc7a35	-0.10765497
207	0xbd191239	-0.037370894
208	0x3dfed36d	0.1244267
209	0x3d2fda2f	0.042932685
210	0x3ddef04f	0.10885679
211	0xbe235283	-0.15949444
212	0x3e0fd4b8	0.1404599
213	0xbc88348d	-0.01662662
214	0xbea0bb74	-0.31393015
215	0x3c9bcc0d	0.019018197
216	0xbd3bc8e9	-0.0458459
217	0x3d523ee4	0.05132951
218	0x3cb33995	0.021878043
219	0x3cec4b03	0.028844362
220	0xbcae12c4	-0.021249183
221	0x3dfec573	0.12440004
222	0xbd96a412	-0.07355513
223	0xbde5f9d6	-0.11229293
224	0xbcb5deef	-0.02220103
225	0x3e438078	0.19091976
226	0xbb73f98a	-0.0037227594
227	0x3c68fb1b	0.014220024
228	0xbea06fcb	-0.3133529
229	0x3ae3cab9	0.0017379142
230	0x3d8b600d	0.068054296
231	0x3dbc7b97	0.092032604
232	0xbcc752af	-0.024331419
233	0xbd9b2cd8	-0.07576913
234	0x3c635497	0.013875148
235	0x3d393fba	0.04522679
236	0x3d841ea4	0.06451157
237	0x3e35a32f	0.17738031
238	0x3ea8f062	0.32995898
239	0xbd99d5bf	-0.07511472
240	0xbe67da7c	-0.22641939
241	0x3ce807d9	0.028324055
242	0xbe60f2f2	-0.21967676
243	0x3dd9dd9a	0.1063797
244	0x3e3a9795	0.18221886
245	0xbe255495	-0.16145547
246	0x3dbc83af	0.09204804
247	0xbe1fd371	-0.15608002
248	0xbd6aef68	-0.05735722
249	0xbd69d139	-0.057084296
250	0x3dd4e3c2	0.10395004
251	0xbe35900d	-0.17730732
252	0xbd13be82	-0.036070354
253	0xbc71defe	-0.014762638
254	0x3e5144d1	0.20436408
255	0x3dac162a	0.08402665

2.bias f4 [256]
0	0xbe83e2d0	-0.25758982
1	0xbe3542d6	-0.17701277
2	0xbe9ba39b	-0.3039826
3	0xbe13c627	-0.14431058
4	0xbd51d05a	-0.05122409
5	0xbdaaadca	-0.08333929
6	0xbdff9c8c	-0.12481031
7	0xbe0b06ea	-0.13576856
8	0xbe26b467	-0.16279756
9	0xbdaddf13	-0.08489814
10	0xbe3db2b2	-0.18525198
11	0xbe96fcf0	-0.2948985
12	0xbdfc6c18	-0.12325305
13	0xbdc51432	-0.096229926
14	0xbdc0679f	-0.09394764
15	0xbe82d095	-0.2554976
16	0xbe018be1	-0.12651016
17	0xbcbf0798	-0.02331905
18	0xbe56ffb2	-0.20995978
19	0xbc5d97aa	-0.013524929
20	0xbdcd3a23	-0.10020854
21	0xbe209e33	-0.15685348
22	0xbd762ce0	-0.06010139
23	0xbe195039	-0.14972009
24	0xbe07a233	-0.13245468
25	0xbdc51132	-0.0962242
26	0xbe47b6cb	-0.19503324
27	0xbe48cf65	-0.19610365
28	0xbdf29c96	-0.11846273
29	0x3d0aa616	0.0338498
30	0xbe0ea243	-0.13929085
31	0xbda3359a	-0.07969208
32	0xbe862471	-0.26199678
33	0xbe0ae811	-0.13565089
34	0xbdd35bd4	-0.10320249
35	0xbdd1e53c	-0.10248801
36	0xbd535369	-0.051593218
37	0xbddbcbe3	-0.10732248
38	0xbe267cd4	-0.16258556
39	0xbdc57370	-0.096411586
40	0xbddeece8	-0.1088503
41	0x3a7ce180	0.0009646639
42	0xbe17d821	-0.1482854
43	0xbdbf0477	-0.093270235
44	0xbda9bc84	-0.082879096
45	0xbce75ee0	-0.028243482
46	0xbe2234ea	-0.15840498
47	0xbd75d141	-0.060014013
48	0x3d356dcb	0.04429416
49	0xbdc4d03d	-0.09610031
50	0xbdf7f672	-0.121075526
51	0xbe1bfd84	-0.15233427
52	0xbdd08fe0	-0.10183692
53	0xbe791a98	-0.24326551
54	0xbe0bc7e0	-0.13650465
55	0xbe08fe3c	-0.13378233
56	0xbde352b3	-0.11099758
57	0xbd885359	-0.06656522
58	0xbc7d48b4	-0.015459228
59	0x3919b2e5	0.0001465786
60	0xbb8cc37e	-0.0042957654
61	0x3da4e3f4	0.08051291
62	0xbdcefdf9	-0.10107035
63	0xbd8b28c5	-0.067948855
64	0xbe0fa104	-0.14026266
65	0xbd8dca74	-0.069233805
66	0x3d151057	0.036392536
67	0xbddf6052	-0.109070435
68	0xbbc66d70	-0.0060555264
69	0xbe661b1f	-0.22471283
70	0xbd977321	-0.07395006
71	0x3d5e9cf6	0.05434891
72	0xbda10f2c	-0.07864222
73	0xbe10ccee	-0.14140674
74	0xbe273b34	-0.16331178
75	0xbdb2290b	-0.086992346
76	0xbd3a1620	-0.045431256
77	0xbe0c05b0	-0.13674045
78	0xbe82c79a	-0.2554291
79	0xbc9a55b5	-0.018839696
80	0xbe08ef54	-0.13372546
81	0xbd9d5ddb	-0.07683917
82	0xbdf89532	-0.12137832
83	0x3d2d7acd	0.04235344
84	0xbee0794c	-0.43842542
85	0xbe787c00	-0.24266052
86	0xbd55dde4	-0.052213565
87	0xbd05a2b6	-0.032625876
88	0xbe5d98ae	-0.21640274
89	0xbc279e43	-0.010230604
90	0xbd66a2bc	-0.05630754
91	0xbdb86c09	-0.09004981
92	0xbdfb1f7a	-0.12261863
93	0xbe3e24e0	-0.18568754
94	0xbe31643a	-0.1732339
95	0xbd55de51	-0.05221397
96	0xbdf67f9b	-0.120360576
97	0xbe16a696	-0.14711985
98	0xbe255b76	-0.16148171
99	0xbdc06d61	-0.09395862
100	0xbe6b3369	-0.2296883
101	0xbe221deb	-0.15831725
102	0xbd9ec36b	-0.07752117
103	0xbe7a943e	-0.24470612
104	0xbc8ff627	-0.01757343
105	0xbe0a7941	-0.13522817
106	0xbd368646	-0.044561647
107	0xbd4e095d	-0.0503019
108	0xbe51cb49	-0.20487703
109	0xbe08dbc3	-0.13365082
110	0xbe21fb3e	-0.15818498
111	0xbe7827c4	-0.2423392
112	0xbe96245b	-0.29324612
113	0xbe9f7114	-0.3114096
114	0xbad9f336	-0.0016628269
115	0xbe3ec5ef	-0.18630193
116	0xbc79bd7b	-0.01524293
117	0xbe2536ea	-0.1613423
118	0xbd0b3b5b	-0.033992153
119	0xbda63562	-0.08115651
120	0xbe6334d0	-0.22188115
121	0xbdb93fe0	-0.09045386
122	0xbd9bd27d	-0.07608507
123	0xbe2c16a8	-0.16805518
124	0xbdd40715	-0.10352913
125	0xbd204620	-0.039129376
126	0xbe5834b6	-0.21113858
127	0xbdb2c7f9	-0.08729548
128	0xbdcd00c9	-0.100099154
129	0xbe19ad95	-0.15007623
130	0x3cdd3f0d	0.027007604
131	0xbe540d28	-0.20708144
132	0xbe666ea8	-0.2250315
133	0xbd450a01	-0.048105244
134	0xbe33e0e5	-0.17566259
135	0xbd98a25c	-0.074528426
136	0xbd214170	-0.039369047
137	0xbdee4757	-0.11634701
138	0xbe16d2ba	-0.14728823
139	0xbcc030a2	-0.02346069
140	0xbe690568	-0.22755969
141	0xbe83654a	-0.25663215
142	0xbe456235	-0.19275744
143	0xbdb489e2	-0.088153616
144	0x39e34043	0.00043344693
145	0xbd3a5283	-0.045488846
146	0xbe18d181	-0.1492367
147	0xbe027310	-0.12739205
148	0x3d1d245b	0.03836475
149	0xbe2a4722	-0.16628698
150	0xbd8c108e	-0.06839095
151	0xbe4876d9	-0.19576587
152	0xbec07e69	-0.37596443
153	0xbeb9923c	-0.3624438
154	0xbe32fdfe	-0.17479703
155	0xbd92c030	-0.07165563
156	0xbd76a744	-0.06021811
157	0xbe1dc996	-0.1540893
158	0xbd94f3e0	-0.07273078
159	0xbde45c13	-0.11150374
160	0xbe96ff66	-0.2949173
161	0xbda2c995	-0.07948605
162	0x3c6928f3	0.014230954
163	0xbe539ef7	-0.20666109
164	0xbd5b11a0	-0.053483605
165	0xbbc55645	-0.006022247
166	0xbe098330	-0.1342895
167	0xbcc1f333	-0.023675537
168	0xbe3c367f	-0.18380164
169	0xbed66f3a	-0.41881734
170	0xbd2302f7	-0.03979775
171	0x3d172cf4	0.036908105
172	0xbda79e7a	-0.08184524
173	0xbe1eafe4	-0.15496784
174	0xbe0f4ab9	-0.13993348
175	0xbe50b8bb	-0.20382969
176	0xbe1ead58	-0.15495813
177	0xbd83172b	-0.06400903
178	0xbe3254f7	-0.17415224
179	0xbe2f930f	-0.17145942
180	0xbed13b10	-0.40865374
181	0xbe141116	-0.14459643
182	0xbd86ad07	-0.06575971
183	0xbe8bf0bb	-0.273321
184	0xbe624c2e	-0.22099373
185	0xbebf59b7	-0.37373134
186	0xbe28520e	-0.16437551
187	0xbde4e828	-0.11177093
188	0xbe91a224	-0.28444016
189	0xbdde7e33	-0.10863914
190	0xbe11fd5c	-0.14256805
191	0xbdcb2de2	-0.09920861
192	0xbc2582eb	-0.010102014
193	0xbdac3ce4	-0.084100515
194	0xbdf4f93a	-0.11961599
195	0xbe137551	-0.14400221
196	0xbda1bd60	-0.078974485
197	0xbddb0fb2	-0.10696353
198	0xbdd75243	-0.10513737
199	0xbdb62169	-0.08893091
200	0xbea2080f	-0.31646773
201	0xbd59898f	-0.0531097
202	0xbcfaef76	-0.030631762
203	0xbcee4754	-0.029086746
204	0xbec68ff9	-0.38781717
205	0xbdf436c7	-0.119245104
206	0xbe36fc66	-0.1786972
207	0xbe77b27f	-0.24189185
208	0xbdf5d969	-0.12004358
209	0xbdb03b65	-0.086050786
210	0xbe2c065f	-0.16799305
211	0xbdfc4d74	-0.123194605
212	0xbe9b2a37	-0.30305645
213	0xbe25928e	-0.16169187
214	0xbe97b760	-0.29632092
215	0xbe271611	-0.16317011
216	0xbee2a164	-0.44263756
217	0xbe4bc0ac	-0.19897717
218	0xbeb3c256	-0.35109204
219	0xbe0f9af2	-0.1402395
220	0xbd0271ca	-0.0318468
221	0xbe3bd86c	-0.18344277
222	0xbe2eb6d4	-0.17061931
223	0xbe5c14fb	-0.21492378
224	0xbe176ab7	-0.14786802
225	0xbe47dbcb	-0.19517438
226	0xbdc8bdd9	-0.098018356
227	0xbcad9f73	-0.021194195
228	0xbd3d0b21	-0.04615319
229	0xbdf9f168	-0.12204248
230	0xbe0f1cc0	-0.13975811
231	0xbdc3a550	-0.09553015
232	0xbe70632c	-0.23475331
233	0xbd982c07	-0.074302725
234	0xbe981fca	-0.29711753
235	0xbe2ef664	-0.17086178
236	0xbd6be0d6	-0.057587467
237	0xbe17c3b1	-0.14820744
238	0xbe00fc7b	-0.12596314
239	0xbe1eb7e9	-0.15499844
240	0xbe05843c	-0.13038725
241	0xbd2fb49b	-0.04289685
242	0xbe0d4343	-0.1379519
243	0xbc9e4e9c	-0.019324593
244	0xbca7b628	-0.020472601
245	0xbdf36b66	-0.11885719
246	0xbe7817e8	-0.2422787
247	0xbc539fd3	-0.012916523
248	0xbc3515d2	-0.011052566
249	0xbc99a2ac	-0.018754326
250	0xbe857d85	-0.26072326
251	0xbe168056	-0.14697394
252	0xbe52469b	-0.20534746
253	0xbe0d044c	-0.1377117
254	0xbe0fdcd3	-0.14049082
255	0xbd71630f	-0.05893236

4.weight f4 [128, 256]
0	0x3dc5bd98	0.09655303
1	0xbd7b7960	-0.06139505
2	0xbceb7b5f	-0.028745351
3	0xbc629060	-0.013828367
4	0xbddec659	-0.108776756
5	0x3d4720f5	0.048615415
6	0x3d4f1efd	0.050566662
7	0x3dac9d5e	0.08428453
8	0x3cabf027	0.020988537
9	0xbd5c38b7	-0.053765025
10	0xbbe8a807	-0.0071001085
11	0xbd0f6128	-0.035004765
12	0xbdfc628d	-0.123234846
13	0x3d427ada	0.04748044
14	0xbbd982d2	-0.0066379094
15	0x3d0d210d	0.034455348
16	0x3d300f13	0.042983126
17	0x3a19d9db	0.000586895
18	0x3c877bb0	0.016538471
19	0xbc841e3d	-0.0161277
20	0x3cef91be	0.0292443
21	0xbe04939c	-0.12946934
22	0x3d9736ca	0.07383497
23	0xbdb98277	-0.09058087
24	0x3d86319b	0.0655243
25	0x3df497f6	0.11943047
26	0x3d99e004	0.07513431
27	0x3c37f1b1	0.011227057
28	0xbe3e5396	-0.18586573
29	0xbd28c58f	-0.04120403
30	0x3da19c0f	0.07891094
31	0x3cda17fb	0.026622763
32	0xbddd7e30	-0.10815084
33	0x3d9eb5b7	0.07749503
34	0x3e406ba0	0.18791056
35	0x3cf07512	0.029352698
36	0x3dc7a1cb	0.097476564
37	0x3d992f66	0.07479744
38	0xbe0f43ef	-0.13990758
39	0xbda09617	-0.07841127
40	0xbdef7ca6	-0.11693697
41	0xbc9163b9	-0.017747747
42	0x3d932338	0.07184452
43	0xbdef6101	-0.11688424
44	0x3d699ccb	0.057034295
45	0xbcfc716f	-0.030815808
46	0xbc83a511	-0.01606992
47	0x3d520e01	0.051282886
48	0x3bb7a1ba	0.005603996
49	0xbde607df	-0.1123197
50	0xbdd03080	-0.10165501
51	0x3cfc622c	0.03080853
52	0x3d01512a	0.031571545
53	0x3d5126d0	0.051062405
54	0x3de7d01b	0.1131899
55	0xbdbe016a	-0.092776135
56	0xbe612cb0	-0.21989703
57	0xbe1039e8	-0.1408459
58	0x3d62f787	0.05541184
59	0x3e3741bc	0.1789617
60	0xbdda7ec2	-0.106687084
61	0xbd95c4ea	-0.07312949
62	0xbcdd520e	-0.027016666
63	0xbdada3d9	-0.08478517
64	0x3d171bd5	0.036891777
65	0x3b197e15	0.0023421098
66	0xbcbe37d8	-0.023219988
67	0x3d031238	0.031999797
68	0x3cc03eba	0.02346741
69	0xbd975ab0	-0.07390344
70	0x3dfbe9f8	0.123004854
71	0xbe23d659	-0.15999736
72	0xbe0c70ff	-0.1371498
73	0xbd46159e	-0.04836046
74	0xbdf301be	-0.11865567
75	0xbc2327bb	-0.009958203
76	0x3d19cebd	0.037550677
77	0xbd381204	-0.044939056
78	0x3e443813	0.19162016
79	0xbe07df60	-0.13268805
80	0xbdacd381	-0.08438779
81	0x3e010130	0.12598109
82	0x3dce8396	0.10083692
83	0x3dee5689	0.11637599
84	0xbcb2fbff	-0.021848677
85	0x3d8e66e7	0.06953221
86	0xbd81fc66	-0.06346969
87	0xbe505fd7	-0.2034906
88	0x3e0ba8bb	0.13638584
89	0xbdc8d023	-0.09805324
90	0x3e0a9561	0.13533546
91	0xbd9ece81	-0.07754231
92	0x3b032865	0.002001309
93	0x3c0fba1d	0.0087724
94	0x3db73d57	0.089472465
95	0x3d16e9b5	0.036843974
96	0xbccd5a40	-0.025067449
97	0xbd8e7ba7	-0.069571786
98	0xbd35a0b2	-0.044342704
99	0x3d976109	0.07391555
100	0xbde38c5c	-0.11110756
101	0xbe0478fc	-0.12936777
102	0xbd49cf4e	-0.049269967
103	0x3d6638db	0.056206565
104	0xbe04bfa4	-0.1296373
105	0xbe188ef6	-0.14898285
106	0xbccd6e6f	-0.025077073
107	0xbcdda909	-0.027058141
108	0xbc873714	-0.016505755
109	0x3c0fe1a7	0.008781827
110	0x3d7ad40c	0.06123738
111	0x3c7410a8	0.014896549
112	0xbe11cad3	-0.14237528
113	0xbdd345ef	-0.10316073
114	0xbeb124b4	-0.34598315
115	0xbd633f8b	-0.05548052
116	0xbdc48a68	-0.095967114
117	0xbc23bb69	-0.0099934125
118	0x3cb42380	0.021989584
119	0xba213203	-0.0006149115
120	0x3bf91b8c	0.007602161
121	0x3d44ff64	0.048095122
122	0xbe06974f	-0.13143657
123	0xbca90377	-0.020631535
124	0xbc827e1a	-0.01592927
125	0x3cff377a	0.031154383
126	0xbe2cc5e7	-0.16872369
127	0x3bc458a5	0.0059920126
128	0xbdaa2cc1	-0.083093174
129	0xb95d6e6e	-0.0002111734
130	0x3dfbd62f	0.12296712
131	0x3de60bfa	0.11232753
132	0x3cdf50ee	0.02726027
133	0xbdd21ef9	-0.10259814
134	0x3d8de043	0.0692754
135	0x3d863577	0.06553166
136	0x3ddb467d	0.10706804
137	0x3db6b3ec	0.08921036
138	0xbd96ef63	-0.07369878
139	0x3dd591a8	0.10428172
140	0xbd89fbd8	-0.067374885
141	0x3d7ac9ff	0.061227795
142	0x3de81cdd	0.1133363
143	0xbd96fa9e	-0.0737202
144	0xbe19a120	-0.1500287
145	0xbd7fc3ce	-0.062442593
146	0xbdb7e0f2	-0.08978452
147	0x3d69837a	0.05701015
148	0xbd26c797	-0.040717687
149	0x3c570b4e	0.013125254
150	0xbe195646	-0.14974317
151	0xbd18d2b1	-0.037310306
152	0x3e398f23	0.18121009
153	0xbc95ea7d	-0.01830029
154	0x3d94d621	0.07267404
155	0x3e1cdeff	0.15319441
156	0xbceb2b47	-0.02870716
157	0xbd31116a	-0.043229498
158	0x3c9f5238	0.019448385
159	0xbb8fa23a	-0.0043833526
160	0xbc404c1b	-0.011736895
161	0x3d3eec1c	0.04661189
162	0xbde6a5b2	-0.112620726
163	0xbd1a310b	-0.037644427
164	0x3d2be599	0.04196701
165	0xbdc41155	-0.09573618
166	0xbd91f1c9	-0.07126195
167	0x3ca2a74a	0.01985516
168	0xbd5ea2b8	-0.0543544
169	0xbd6bf67e	-0.05760812
170	0x3ca3932e	0.019967642
171	0xbcd1ab7a	-0.025594462
172	0x3d00bbc3	0.031429064
173	0x3d8d0485	0.06885628
174	0x3be8020f	0.0070803235
175	0x3e3dcddd	0.18535562
176	0x3cc249a5	0.023716757
177	0x3dcbccdd	0.09951184
178	0x3bf6f401	0.0075364118
179	0x3e030671	0.12795426
180	0xbcebf3b2	-0.028802726
181	0xbbca3a80	-0.0061715245
182	0x3d843cf2	0.06456937
183	0x3da94f5b	0.08267089
184	0x3cbc2a3b	0.022969356
185	0x3dba5d85	0.09099869
186	0x3d7117e4	0.058860675
187	0xbd287f3f	-0.041136976
188	0x3e8d705c	0.27624786
189	0x3e10f68e	0.14156553
190	0xbc0ce56c	-0.00859962
191	0xbcc48b95	-0.02399234
192	0x3d290a21	0.041269425
193	0x3c553981	0.013014198
194	0xbd2f9428	-0.042865902
195	0xbe071558	-0.13191736
196	0x3c5675b7	0.013089589
197	0x3a1008ce	0.0005494476
198	0x3d20ff2b	0.039305847
199	0x3e6b6f08	0.22991574
200	0xbda326c1	-0.07966376
201	0x3dad3aa3	0.0845845
202	0xbe202d78	-0.15642345
203	0xbe024ddd	-0.12725015
204	0xbd5b0d2c	-0.05347936
205	0xbdea1005	-0.11428837
206	0x3d19cda1	0.03754962
207	0x3de1fa95	0.11034123
208	0xbdc243b1	-0.09485567
209	0xbe0c72f8	-0.13715732
210	0xbccfbf52	-0.025359783
211	0xbd544ced	-0.051831175
212	0xbd53d477	-0.051716294
213	0xbd47d780	-0.0487895
214	0xbbf71845	-0.007540735
215	0x3dca1987	0.0986815
216	0xb9af7d27	-0.00033471847
217	0x3c3f5e3d	0.011680183
218	0x3e2a07e8	0.16604578
219	0x3d814a9c	0.06313059
220	0x3dfff8b4	0.12498608
221	0x3d7aef93	0.061263632
222	0xbdf8b250	-0.121433854
223	0x3de158d1	0.110032685
224	0x3c07dc92	0.008292334
225	0xbca76331	-0.02043304
226	0xbdb204fb	-0.08692356
227	0xbd411c8b	-0.04714636
228	0xbdc9e7ba	-0.098586515
229	0x3c936f2a	0.017997343
230	0xbca38cf4	-0.019964673
231	0xbd01a635	-0.031652648
232	0xbc0f419f	-0.008743673
233	0xbd79c89d	-0.060982335
234	0x3c6d195d	0.014471379
235	0x3df84eec	0.12124428
236	0x3e0298a3	0.12753539
237	0x3d46f826	0.048576497
238	0x3c1ec337	0.0096900975
239	0x3dcfc9b5	0.101458944
240	0xbd15cc0d	-0.03657155
241	0xbd285fa5	-0.04110684
242	0x3e1aae2a	0.15105501
243	0xbdd69c61	-0.10479046
244	0x3e06f1b4	0.1317814
245	0x3c2f71cc	0.010708284
246	0x3d922490	0.0713588
247	0x3d80806e	0.06274496
248	0xbd4f33df	-0.050586578
249	0x3cea70ed	0.0286183
250	0xbe1fe6e8	-0.15615427
251	0x3d7b9014	0.0614167
252	0x3cc3341a	0.023828555
253	0x3d62544b	0.05525617
254	0xbd296337	-0.041354384
255	0xbde0382a	-0.109482124

4.bias f4 [128]
0	0xbdc9081c	-0.09816
1	0xbd45c6b0	-0.048285186
2	0xbe8a4d68	-0.2701218
3	0xbe92e38a	-0.28689224
4	0xbddc8d46	-0.10769133
5	0xbd999575	-0.0749921
6	0xbe3eaf85	-0.18621643
7	0xbe238993	-0.15970449
8	0xbc39f8e6	-0.011350846
9	0xbd98a5a1	-0.07453466
10	0xbdb6e593	-0.089305066
11	0xbdd2eeca	-0.10299452
12	0xbc8bde61	-0.017073812
13	0xbe2ebb9f	-0.1706376
14	0xbe5f2241	-0.2179041
15	0xbe2e7d7f	-0.1704006
16	0xbe1b1af7	-0.15147005
17	0xbe161c12	-0.14659145
18	0xbe22284e	-0.15835688
19	0xbe00f6d6	-0.1259416
20	0x3c2132f1	0.0098388055
21	0xbddf2a44	-0.108967334
22	0xbdbe5228	-0.09293014
23	0x3a24a60b	0.0006280846
24	0xbd8600db	-0.06543132
25	0xbdbc9b12	-0.09209265
26	0xbc578c5d	-0.013156024
27	0x3d17e0c9	0.037079606
28	0xbddd0e45	-0.10793737
29	0xbd0ff5e0	-0.035146594
30	0xbe885eb1	-0.26634744
31	0xbdfa3893	-0.12217822
32	0xbdf4046f	-0.11914908
33	0xbdbdd44a	-0.092690066
34	0xbe6ffd2b	-0.2343642
35	0xbe293bed	-0.16526766
36	0xbdc0026a	-0.093754604
37	0xbca4c50a	-0.020113487
38	0xbc0a042a	-0.008423844
39	0xbcf49d97	-0.029860301
40	0xbd79376d	-0.060843874
41	0xbe14c096	-0.1452659
42	0xbe67194b	-0.22568242
43	0xbd0df7f4	-0.034660295
44	0xbe447443	-0.19184975
45	0xbe64208b	-0.22278039
46	0xbe4a09fe	-0.19730374
47	0xbe4d3e4a	-0.20043293
48	0xbdc2e253	-0.09515824
49	0xbdc78f93	-0.097441815
50	0xbc7bc5f8	-0.015367024
51	0xbe1ec02d	-0.15502997
52	0xbdf89522	-0.1213782
53	0xbd808a53	-0.06276383
54	0x3bbee7ca	0.0058259713
55	0xbdb9ae29	-0.090664215
56	0xbdb51706	-0.08842282
57	0xbdc28b6e	-0.0949925
58	0xbdbc75d1	-0.09202159
59	0xbe90cd74	-0.28281748
60	0xbd3aa74a	-0.045569696
61	0xbda8085d	-0.0820472
62	0xbe02fd7e	-0.12792012
63	0xbe97d907	-0.29657766
64	0xbe263b13	-0.16233473
65	0xbe297751	-0.16549422
66	0xbc8f9b01	-0.017529966
67	0xbd8d0ed6	-0.06887595
68	0xbdc44195	-0.09582821
69	0xbdb31c86	-0.08745675
70	0xbe23c068	-0.15991366
71	0xbe101bf9	-0.1407317
72	0xbde5f4bd	-0.11228321
73	0x3ba2970f	0.0049618552
74	0xbe4bf3d7	-0.19917236
75	0xbe1d0053	-0.15332155
76	0xbdd4be54	-0.10387865
77	0xbe19b4fd	-0.15010448
78	0xbda55622	-0.08073069
79	0x3c8ec98e	0.017430093
80	0xbe1c28c0	-0.1524992
81	0xbe90fb7a	-0.2831686
82	0xbd9142e5	-0.07092837
83	0xbdd926d4	-0.10603109
84	0xbd47122d	-0.04860132
85	0xbe66fb78	-0.22556865
86	0xbd54699f	-0.05185854
87	0xbd2b0afc	-0.041758522
88	0xbdf0ec6c	-0.11763844
89	0xbe2e95f9	-0.17049398
90	0xbdde2fac	-0.108489364
91	0xbd16a0c0	-0.036774397
92	0xbdc3be71	-0.09557808
93	0xbd9a3c92	-0.07531084
94	0xbd389656	-0.045065247
95	0xbe00da3e	-0.12583253
96	0xbda26080	-0.07928562
97	0xbdc19cd3	-0.0945374
98	0xbb65f638	-0.0035089385
99	0xbdb879ce	-0.090076074
100	0xbe119cca	-0.14219967
101	0xbe3ed2c5	-0.1863509
102	0xbe7983cd	-0.24366684
103	0xbd54d83d	-0.051964033
104	0xbdf98b73	-0.12184801
105	0xbd57cd03	-0.05268575
106	0xbe2b1201	-0.16706087
107	0xbe0e2369	-0.13880695
108	0xbcb0fd04	-0.021605022
109	0x3c1dbcca	0.00962753
110	0xbe38bc5a	-0.180406
111	0xbded5f22	-0.11590411
112	0xbe2006e2	-0.15627626
113	0xbe2d240f	-0.16908287
114	0xbd8310da	-0.063996986
115	0xbd8d0349	-0.06885392
116	0xbe1f262b	-0.15541904
117	0xbe25ce94	-0.16192085
118	0xbe00abe8	-0.12565577
119	0xbe648a6d	-0.2231843
120	0xbd5a02d5	-0.053225357
121	0xbab73692	-0.0013978055
122	0xbe0f74e8	-0.1400944
123	0xbd8b164d	-0.06791363
124	0xbe1df894	-0.15426856
125	0xbea91ded	-0.33030644
126	0xbe2990b7	-0.1655911
127	0xbd85036f	-0.064947955

6.weight f4 [12, 128]
0	0x3c4d55b9	0.012532645
1	0x3d538030	0.05163592
2	0x3d2ac929	0.041695748
3	0xbccf068e	-0.02527168
4	0xbb1617dd	-0.0022902407
5	0x3bb6477a	0.00556272
6	0x3d71209d	0.058868993
7	0xbcbeff7f	-0.02331519
8	0xbd90e4e5	-0.07074908
9	0xbc9149fe	-0.017735478
10	0x3d86bf79	0.06579489
11	0x3da54d1f	0.0807135
12	0xbda60314	-0.08106056
13	0xbcf37a25	-0.029721329
14	0x3c409515	0.011754294
15	0xbd510f82	-0.05104018
16	0x3d598d32	0.05311317
17	0xbc0fcd37	-0.008776954
18	0x3bc772ec	0.006086698
19	0x3cff2ae9	0.03114839
20	0x3d52e298	0.051485628
21	0x3bd59f65	0.0065192454
22	0x3cb72717	0.022357507
23	0x3d397816	0.04528054
24	0x3c79dbd6	0.015250167
25	0xbd2dc03c	-0.042419657
26	0xbc9cd1ad	-0.01914295
27	0x3d6ee850	0.05832702
28	0xbd982adc	-0.0743005
29	0xbd8f3c63	-0.0699394
30	0x3bf3f3c3	0.00744483
31	0xba647d27	-0.0008716159
32	0xbc379835	-0.011205723
33	0x3cc369bf	0.023854135
34	0x3ce7900a	0.028266925
35	0x3d839bd0	0.06426203
36	0x3cf878a3	0.030330962
37	0xbd15abb2	-0.036540695
38	0x3d1f4111	0.03888041
39	0x3b408c0b	0.0029380347
40	0x3d159960	0.036523223
41	0xbdca53cd	-0.09879265
42	0x38b31743	8.539718e-05
43	0x3cfa2de1	0.030539455
44	0xbd747cbe	-0.059689276
45	0x3d3f2776	0.046668492
46	0x3ca40727	0.020022942
47	0xbc9f39f5	-0.019436816
48	0xbd8539d4	-0.065051705
49	0xbccc82c6	-0.024964701
50	0xbc357bcd	-0.01107688
51	0x3c846c7d	0.016165012
52	0xbd4caa26	-0.049966954
53	0xbce38a7c	-0.027775995
54	0xbdbc575f	-0.09196352
55	0x3d2c95b4	0.042134956
56	0x3d8f2277	0.069889955
57	0x3d3f7970	0.04674667
58	0x3d1e4c1a	0.038646795
59	0x3c260e5f	0.010135262
60	0xbcba7281	-0.022759678
61	0x3d43bbfa	0.04778669
62	0x3cb39856	0.021923225
63	0xbdc7f525	-0.097635545
64	0xbc7ab765	-0.015302514
65	0xbd302139	-0.043000434
66	0xbcedeaaa	-0.02904256
67	0x3c4a6c3c	0.012354907
68	0xbd620d85	-0.055188674
69	0xbc652df0	-0.013988003
70	0x3c8d345f	0.017236887
71	0x3b94770d	0.0045307935
72	0xbb98761d	-0.004652752
73	0xbcbbc7b3	-0.022922372
74	0xbd0d2c1d	-0.034465898
75	0xbc959fd1	-0.018264683
76	0xbc4e86e8	-0.012605406
77	0x3df33fff	0.11877441
78	0xbd23e7df	-0.04001605
79	0xbb8cbe77	-0.004295166
80	0xba158fe2	-0.0005705339
81	0xbc54e5c1	-0.012994231
82	0xbd902727	-0.07038718
83	0xbcebf100	-0.028801441
84	0xbcab35f7	-0.020899756
85	0x3ce789cf	0.028263954
86	0xbcb4a314	-0.022050418
87	0xbcecd020	-0.028907835
88	0xbc7167aa	-0.014734188
89	0x3ccc9b5b	0.024976423
90	0x3d9725cc	0.07380256
91	0x3d089e2e	0.033353977
92	0xbd1e78e1	-0.038689498
93	0x3de0deaa	0.1097997
94	0x3cde9547	0.02717079
95	0xbcf06c89	-0.029348629
96	0x3d4a7d94	0.049436167
97	0xbc449902	-0.0119993705
98	0xbd5f1e1c	-0.054472074
99	0x3d91f241	0.071262844
100	0x3d0dbba4	0.034602776
101	0xbc371659	-0.011174762
102	0xbca5e61a	-0.020251323
103	0xbd1266ef	-0.035742696
104	0x3d265f38	0.04061815
105	0x3c2e01b9	0.010620528
106	0x3c53fbfa	0.012938494
107	0xbd440f06	-0.04786589
108	0x3d11beda	0.0355824
109	0xbc40686a	-0.011743644
110	0x3b9614d3	0.004580119
111	0xbd85e2ab	-0.06537374
112	0x3d642020	0.0556947
113	0x3c846033	0.016159153
114	0xbdacc0c4	-0.084352046
115	0x3d06a26a	0.032869734
116	0x3d4ed681	0.050497536
117	0x3bbb434f	0.005714811
118	0xbd0dde3d	-0.03463577
119	0xbc3e1216	-0.011600992
120	0xbdb39757	-0.087691
121	0x3dc9a787	0.098464064
122	0x3cbb1b73	0.022840237
123	0x3ce0e4fd	0.02745294
124	0xbd1b4eb8	-0.03791687
125	0x3d3606cb	0.044440072
126	0x3d8c39cf	0.068469636
127	0x3d41ee31	0.047346298
128	0xbd3298b6	-0.043602668
129	0x3d669dc8	0.056302816
130	0xbab998ba	-0.0014159896
131	0x3ced7150	0.028984696
132	0x3d05b8e1	0.032647017
133	0xbcce910e	-0.025215652
134	0x3a8decdb	0.0010828035
135	0x3d4835ca	0.048879422
136	0xbbb8e6ea	-0.0056427615
137	0x3c03e034	0.00804906
138	0xbb3caa67	-0.002878809
139	0x3a18ed22	0.00058336754
140	0xbd47ccba	-0.048779227
141	0x3d80ef36	0.06295626
142	0xbc4161c9	-0.011803099
143	0xbd26479c	-0.040595636
144	0xbcef1825	-0.029186318
145	0x3d02e09c	0.031952485
146	0xbcca8f37	-0.024726493
147	0x3ce9633b	0.0284897
148	0x3be18f7f	0.006883561
149	0x3d45f88f	0.048332747
150	0xbd2e3cc2	-0.042538412
151	0x3b75b29e	0.0037490497
152	0xbba9cf1e	-0.005182161
153	0xbcf8a18a	-0.030350465
154	0x3aed81fe	0.0018120406
155	0xbcbefcd0	-0.02331391
156	0xbd37e7c6	-0.04489877
157	0x3ceb5223	0.02872569
158	0x3d35ea68	0.044413
159	0x3dad324d	0.0845686
160	0xbd592e77	-0.053022828
161	0xbc47222a	-0.012154141
162	0xbda2e09e	-0.079529986
163	0x3c6c2a23	0.014414343
164	0xbd202c7b	-0.03910492
165	0x3c8d829f	0.017274199
166	0x3c7b6362	0.015343519
167	0xbc0a89ff	-0.008455752
168	0xbcb951e4	-0.022622056
169	0xbc911671	-0.017710896
170	0x3cdcfb8c	0.026975416
171	0x3bb35c47	0.005473647
172	0xbbd2b941	-0.0064307754
173	0x3e264ac6	0.16239461
174	0xbc4049ba	-0.011736328
175	0xbd0ac6e3	-0.03388108
176	0xbd2b0567	-0.0417532
177	0xb9ba3770	-0.0003551799
178	0x3d1d1787	0.038352516
179	0xbdc25fba	-0.09490915
180	0x3db0c23a	0.08630796
181	0xbcfad708	-0.030620113
182	0x3c820927	0.015873505
183	0x3d3cc06c	0.046081945
184	0x3e0192e4	0.1265369
185	0x3c4073d9	0.01174637
186	0xbd3c2c28	-0.04594055
187	0xbd4a3582	-0.049367435
188	0xbba3a15f	-0.004993602
189	0x3da24c0a	0.079246596
190	0xbbccda4f	-0.0062516103
191	0x3d3f1b9d	0.046657193
192	0x3c24a0be	0.01004809
193	0xba5e16aa	-0.0008472005
194	0xbda50e96	-0.08059423
195	0x3c0fa496	0.008767268
196	0x3c3ae69a	0.011407519
197	0x3c875dd1	0.016524227
198	0x3d405fcb	0.046966355
199	0x3cddf63c	0.027094953
200	0xbe022635	-0.12709887
201	0xbd01914f	-0.031632718
202	0x3d10dcfd	0.035367
203	0x3b3a9792	0.002847169
204	0x3d5ec7f1	0.054389898
205	0xbd4869a9	-0.04892889
206	0x3a603845	0.00085533067
207	0x3cd7b850	0.026333004
208	0x3bd71de7	0.006564844
209	0x3d4edbbc	0.050502524
210	0x3d3a6888	0.045509845
211	0x3cead086	0.028663885
212	0xbd08ca1f	-0.033395883
213	0x3e127201	0.14301302
214	0x3cbbaa69	0.022908406
215	0xbd951dd2	-0.072810784
216	0xbd43d6bf	-0.04781222
217	0xbd00ff1d	-0.031493295
218	0x3ac496ca	0.0014998552
219	0xbc4fd2fe	-0.012684582
220	0x3cbb131c	0.02283626
221	0x3bd47fd6	0.006484966
222	0xbcdfd403	-0.027322775
223	0xbc963975	-0.018337945
224	0x3d334842	0.043770082
225	0x3b696661	0.0035614
226	0xbd62863a	-0.05530379
227	0xbcdfce08	-0.027319923
228	0xbcac303b	-0.021019092
229	0x3c1b795d	0.0094893845
230	0xbdb0f795	-0.086409725
231	0x3d2333ed	0.039844442
232	0x3d11281c	0.035438642
233	0x3c37948d	0.011204851
234	0xbd2369f3	-0.039895963
235	0x3ccd21f1	0.025040599
236	0x3c613afc	0.013746973
237	0xbbba70de	-0.0056897243
238	0xbd0f2d2b	-0.034955185
239	0x3aae161d	0.0013281737
240	0xbdaf451b	-0.08558103
241	0xbcb97626	-0.022639345
242	0xbdae3fca	-0.085082605
243	0xbd069917	-0.03286084
244	0xbd5b509e	-0.05354368
245	0x3cb8096e	0.022465434
246	0xbdb8626d	-0.09003148
247	0x3c8bb464	0.01705379
248	0x3d833390	0.06406319
249	0xbbc04794	-0.005867908
250	0xbd54329a	-0.05180607
251	0xbd82a186	-0.063784644
252	0xbc316ab0	-0.010828659
253	0x3d7b673d	0.061377753
254	0xbd0a28ac	-0.033730194
255	0xbd8848ab	-0.06654485

6.bias f4 [12]
0	0xbe0caaba	-0.13737002
1	0xbd211b41	-0.039332632
2	0x3ccacf69	0.024757104
3	0x3caf31ca	0.021386046
4	0x3d32e78b	0.043677848
5	0xbdb5677e	-0.0885763
6	0xbe19b735	-0.15011294
7	0x3cfe8e8e	0.031073835
8	0xbd08fb3b	-0.033442717
9	0xbdfc0b9d	-0.123069026
10	0x3deaf239	0.114719816
11	0x3c03635e	0.008019296
