onnx/policy_1500.onnx (onnx, 758221 bytes, 8 tensors)

0.weight f4 [512, 45]
-0.15034197 0.15882134 0.055470716 -0.16586013 0.30318958 0.07563105 -0.035603568 -0.0933896
0.29652354 0.12240793 -0.05953755 0.17944287 -0.42442346 0.44801494 0.3716375 -0.24255656
-0.034150835 -0.06329868 0.16579631 -0.030835694 -0.40409288 0.2508541 0.22542168 -0.07363581
0.01723478 -0.35646385 0.28704002 -0.24452406 0.002939499 -0.021080773 -0.25924712 0.08019956
-0.07077128 -0.06603961 -0.06062036 -0.0010788593 -0.013589842 0.030395482 -0.028777407 0.016546905
0.04135473 -0.057438895 -0.039058406 -0.00024702025 0.14606237 0.089633144 0.19180974 0.087259576
-0.020625925 -0.10534783 -0.1123972 -0.14930817 -0.0057418807 -0.47698882 -0.017704401 0.49452257
0.18298656 0.2796016 0.35568723 0.010094168 -0.2543461 0.0949606 0.2911323 0.16344294
0.0479146 0.3441259 -0.1391582 0.20146039 -0.46765542 -0.15379041 0.536328 -0.33193183
0.2841252 0.45337787 0.13456996 -0.22026196 0.021549791 -0.33818302 0.010746485 -0.04789434
0.071143106 -0.025414592 -0.024311386 0.04449896 0.0046281517 -0.07298702 0.007815211 -0.029466685
-0.035108607 -0.077191874 -0.17886072 -0.104932934 -0.16109686 -0.32342124 0.14874044 -0.11479649
-0.11866618 -0.172898 -0.63344413 -0.16257073 0.25423434 -0.0073345974 -0.036852304 0.6484946
0.04651531 -0.24851952 -0.1280473 0.019055814 -0.1816997 -0.16286092 -0.1657576 -0.42445356
0.035248667 -0.45185196 -0.29175028 0.12752771 0.08528547 -0.09670587 -0.08263597 0.077879116
-0.004736713 -0.00088643224 0.002599442 0.022212053 -0.028738376 0.06538562 -0.066301465 -0.030819522
0.03376802 -0.011680863 0.0060096695 -0.0007137491 0.0215112 0.074496076 0.037068617 0.2592879
-0.20561387 -0.028793618 0.008936742 -0.2537719 0.044283107 0.09607181 -0.0540697 -0.7137253
0.19845863 -0.20625767 -0.19492044 0.18094222 0.48551953 0.12871413 -0.499021 0.13368945
0.036619138 0.180112 -0.05736284 0.004028557 0.03701739 -0.46364623 -0.09812636 0.249569
0.2878965 -0.12219694 0.35118076 0.23883235 -0.08005363 -0.071177036 0.019677022 -0.0041122106
-0.044967968 0.05825119 -0.039111387 0.0017094383 -0.081146136 0.022250718 0.0738148 -0.019112244
0.068722986 0.00847311 0.041256864 -0.036399 -0.15409446 -0.30787486 -0.052694142 0.3380591
0.6837072 0.00473108 0.0011806882 -0.121934794 0.15528287 -0.2783857 -0.05994926 0.119406715
0.026970131 -0.03559409 0.07008534 -0.30761978 -0.068966046 -0.30048454 0.091907434 -0.39676988
0.46170726 -0.4811401 0.022490578 -0.09720585 0.031882267 0.20533715 0.48996463 -0.5309217
-0.055652756 -0.1198728 0.22522499 0.088069126 0.0057481974 0.05514253 0.044278663 0.09246594
-0.022252128 0.022760991 -0.044523213 0.038336445 -0.046223115 0.01976668 -0.043156248 0.07045351
-0.07562756 0.08586107 0.020228397 0.09307909 0.045732673 0.54632324 0.06979434 0.045776743
-0.13949852 -0.17491184 0.0081105875 -0.44411573 0.08885244 -0.12443659 -0.081558935 -0.31000116
-0.08744794 0.08135751 -0.3857499 0.100013174 -0.35131985 0.31018737 0.23518294 -0.14576969
0.060405582 -0.03276293 -0.318865 0.11139528 -0.20315774 -0.2331438 0.0022595744 0.08086718
00000000: 3ff3 19be 10a2 223e 4335 633d 3dd7 29be
00000010: aa3b 9b3e 74e4 9a3d 0cd5 11bd 0c43 bfbd
00000020: efd1 973e 02b1 fa3d a5dd 73bd dfbf 373e
00000030: 084e d9be 3762 e53e 4547 be3e bf60 78be
00000040: bfe1 0bbd bda2 81bd 82c6 293e 239b fcbc
00000050: 43e5 cebe f36f 803e f1d4 663e 5fce 96bd
00000060: f42f 8d3c 6e82 b6be e9f6 923e 8464 7abe
00000070: 9ca4 403b 96b1 acbc 0abc 84be ab3f a43d
00000080: 88f0 90bd c63f 87bd 0e4d 78bd 8368 8dba
00000090: eea7 5ebc f2ff f83c 99be ebbc 608d 873c
000000a0: 9463 293d 0c45 6bbd b5fb 1fbd 7f82 81b9
000000b0: 6091 153e 9591 b73d c669 443e 26b5 b23d
000000c0: b3f7 a8bc 9ac0 d7bd 8130 e6bd 3ee4 18be
000000d0: 6326 bcbb e137 f4be d208 91bc 1032 fd3e
000000e0: d460 3b3e f127 8f3e a31c b63e 0262 253c
000000f0: a739 82be b47a c23d 4b0f 953e 965d 273e
00000100: 1a42 443d 4531 b03e 7d7f 0ebe a24b 4e3e
00000110: 8870 efbe 3c7b 1dbe cb4c 093f f8f2 a9be
00000120: dc78 913e 2521 e83e b5cc 093e 5a8c 61be
00000130: 3089 b03c 5326 adbe 0612 303c db2c 44bd
00000140: 7ab3 913d 4332 d0bc ac28 c7bc 8b44 363d
00000150: c0a7 973b 387a 95bd 5f0b 003c 1e64 f1bc
00000160: 0bce 0fbd c616 9ebd 4427 37be 14e7 d6bd
00000170: 93f6 24be 7897 a5be 6a4f 183e 6c1a ebbd
00000180: 4107 f3bd 2c0c 31be 6529 22bf f178 26be
00000190: 012b 823e 1057 f0bb 71f2 16bd be03 263f
000001a0: d686 3e3d e77b 7ebe d51e 03be f01a 9c3c
000001b0: 7c0f 3abe 03c5 26be 5cbc 29be fa51 d9be
000001c0: e860 103d 2459 e7be 4b60 95be a096 023e
000001d0: 26aa ae3d ba0d c6bd 0c3d a9bd 167f 9f3d
000001e0: 6e36 9bbb 765f 68ba 665b 2a3b 0df6 b53c
000001f0: be6c ebbc e5e8 853d 10c9 87bd 3979 fcbc
00000200: 5650 0a3d 1761 3fbc c3ec c43b e41a 3bba
00000210: 4238 b03c 6691 983d 43d5 173d 62c1 843e
00000220: 718c 52be 98e0 ebbc 6a6b 123c 64ee 81be
00000230: 3462 353d 4cc1 c43d 3178 5dbd b4b6 36bf
00000240: bd38 4b3e 3635 53be 3999 47be eb48 393e
00000250: 0496 f83e a3cd 033e ae7f ffbe e3e5 083e
00000260: f3fd 153d 486f 383e 4cf5 6abd fc01 843b
00000270: 8c9f 173d 0a63 edbe 79f6 c8bd 048f 7f3e
00000280: 2c67 933e 6442 fabd f7cd b33e 7890 743e
00000290: 28f3 a3bd 44c5 91bd b531 a13c b9bf 86bb
000002a0: 5530 38bd cd98 6e3d 4333 20bd 3b0f e03a
000002b0: f22f a6bd 2347 b63c 372c 973d 4891 9cbc
000002c0: a3be 8c3d cdd2 0a3c f5fc 283d 1e17 15bd
000002d0: f0ca 1dbe c6a1 9dbe d0d5 57bd 1516 ad3e
000002e0: 6f07 2f3f 2d07 9b3b 52c1 9a3a f3b8 f9bd
000002f0: 7902 1f3e 9288 8ebe 5b8d 75bd 828b f43d
00000300: 77f0 dc3c 1ccb 11bd e788 8f3d 5780 9dbe
00000310: 123e 8dbd 1cd9 99be f739 bc3d 6c25 cbbe
00000320: e564 ec3e ff57 f6be 293e b83c dc13 c7bd
00000330: fb96 023d e743 523e a5dc fa3e 7cea 07bf
00000340: 25f4 63bd df7f f5bd 61a1 663e 965d b43d
00000350: 605b bc3b 22dd 613d 8b5d 353d c85e bd3d
00000360: 184a b6bc 4275 ba3c f95d 36bd ad06 1d3d
00000370: 7354 3dbd bced a13c 9bc4 30bd ee49 903d
00000380: 9fe2 9abd eed7 af3d 06b6 a53c 40a0 be3d
00000390: 2f52 3b3d d7db 0b3f 56f0 8e3d 6580 3b3d
000003a0: b3d8 0ebe 171c 33be 45e2 043c 2363 e3be
000003b0: 45f8 b53d 9cd8 febd 5f08 a7bd 79b8 9ebe
000003c0: e817 b3bd c49e a63d 0381 c5be b5d3 cc3d
000003d0: 32e0 b3be e1d0 9e3e ccd3 703e a644 15be
000003e0: d86b 773d 6c32 06bd 4642 a3be 3523 e43d
000003f0: 9508 50be 40bd 6ebe 5e15 143b b19d a53d

0.bias f4 [512]
0.06849688 0.012147866 -0.17062168 -0.007930993 0.09275053 -0.11462797 0.075261235 0.034691714
-0.18209627 -0.22505382 -0.017486837 -0.24627137 -0.07091932 -0.13919456 -0.17349423 0.10124783
0.09314491 -0.16600743 0.21599616 0.031696144 -0.011400582 -0.1283003 0.11104195 -0.0022967986
-0.08560562 -0.07468054 0.06807279 0.049435083 0.13106403 -0.16789903 -0.05113998 0.013142092
-0.2407315 -0.22780873 -0.24614868 -0.047104772 0.061853092 0.015123691 -0.016607521 0.08930106
0.069363475 0.006396914 0.027448775 0.27997896 0.15299833 0.07346499 -0.212768 -0.03999171
-0.061382994 0.17436448 -0.10186418 0.071110696 0.15468867 0.0068101394 -0.21018778 0.09824538
0.036219433 0.123519056 0.12450284 0.11506026 0.16954729 -0.0034331686 0.034902208 -0.24300218
0.11788481 -0.32815966 -0.052840363 0.015592812 0.014594584 -0.12816302 0.059175428 -0.04977161
-0.01971669 -0.048781056 -0.050502386 -0.14416549 -0.13060834 -0.1261197 -0.109444365 -0.0070535974
0.15591852 0.0015967626 -0.22376595 -0.09440176 0.1551166 -0.0047141965 -0.027665948 -0.08477171
-0.18181865 0.08562724 -0.051353365 -0.10509905 -0.031367797 -0.15923086 0.09290827 -0.022222647
-0.17444763 -0.07393493 -0.0313952 0.17015967 -0.20050092 0.0804454 -0.09184421 0.002253022
0.09527601 0.052459672 -0.16423945 -0.24476013 -0.18222563 -0.098689355 0.17559707 0.06956367
-0.017747467 0.27680928 0.11606442 0.03745763 0.081691965 -0.15314998 -0.067265384 -0.17364718
-0.22819634 -0.32525465 0.13744354 -0.09149725 0.1711092 -0.05870319 -0.13824593 -0.15297452
0.18939921 0.114661045 -0.20829155 -0.20163117 0.26911238 0.09080669 0.055968717 -0.2927699
-0.04954116 -0.0620836 0.07268188 0.026634034 -0.1110141 0.016726043 0.18575804 -0.06362422
0.13185574 -0.023738539 -0.20497192 0.017999984 0.004529052 0.11027095 -0.16866562 -0.056588747
0.120497935 -0.019028028 -0.0749094 -0.019212838 0.12915933 0.19493437 -0.2529172 0.23279147
0.12847532 -0.17652912 0.053121388 0.070371896 -0.13836582 -0.09318477 -0.02232642 0.0536583
-0.1294537 -0.025181092 0.03808894 -0.27145267 0.087941445 -0.09268208 0.043752 0.0028893305
0.06586394 -0.17038016 -0.16426048 0.0043790517 -0.036047343 -0.1715499 -0.1506615 -0.16052105
0.21443239 0.013508221 -0.033664104 0.1539968 0.018144136 -0.110549875 -0.15840518 -0.017274573
0.001031964 0.10976348 0.025040025 -0.044613916 0.03732522 -0.056253236 0.08592037 -0.08778242
-0.044837523 0.0017483627 -0.069727995 -0.22181363 0.30168164 -0.007627522 -0.0058284365 -0.098641366
0.09052577 -0.08825825 -0.016658193 0.059287474 0.21588124 -0.12573296 0.1064261 -0.16008194
0.21007375 0.10094486 0.070145555 -0.003116368 0.14320734 -0.22946922 -0.0444889 -0.12235971
0.18739252 -0.07432442 -0.05303937 -0.019276343 0.19515766 -0.19897628 -0.024422254 0.09649317
-0.008090173 0.033368427 -0.18138637 -0.26276666 -0.17752202 0.060746085 -0.03025682 -0.020305164
-0.21299101 -0.072126344 0.22124553 0.116165884 -0.2194057 0.00926885 -0.25873435 0.096048966
-0.22844313 0.16703802 0.077239856 0.017294612 0.08427445 -0.17641087 -0.015501351 0.17677897
00000000: 1848 8c3d d807 473c 73b7 2ebe fff0 01bc
00000010: fdf3 bd3d 12c2 eabd 9022 9a3d e618 0e3d
00000020: 7277 3abe 8274 66be 8e40 8fbc 902e 7cbe
00000030: 263e 91bd 0589 0ebe 79a8 31be 065b cf3d
00000040: c2c2 be3d dafd 29be 192e 5d3e d1d3 013d
00000050: 82c9 3abc 2761 03be f669 e33d e385 16bb
00000060: 0052 afbd 1cf2 98bd bf69 8b3d 717c 4a3d
00000070: a635 063e b9ed 2bbe 2878 51bd ee51 573c
00000080: 5182 76be b146 69be 660e 7cbe eff0 40bd
00000090: ab59 7d3d 5cc9 773c 7f0c 88bc 79e3 b63d
000000a0: 700e 8e3d 349d d13b 41dc e03c 6759 8f3e
000000b0: 98ab 1c3e d074 963d dbdf 59be 59ce 23bd
000000c0: bc6c 7bbd 9a8c 323e 2b9e d0bd 7ca2 913d
000000d0: b566 1e3e 9727 df3b 773b 57be e034 c93d
000000e0: d45a 143d 8ff7 fc3d 58fb fe3d b7a4 eb3d
000000f0: ce9d 2d3e 03ff 60bb 9ef5 0e3d 90d5 78be
00000100: 976d f13d 8b04 a8be 236f 58bd fe78 7f3c
00000110: 1f1e 6f3c 2b3d 03be ef61 723d 51dd 4bbd
00000120: e584 a1bc a5ce 47bd 97db 4ebd 1ea0 13be
00000130: 31be 05be 8625 01be 5e24 e0bd dd21 e7bb
00000140: 1ba9 1f3e 764a d13a e722 65be b655 c1bd
00000150: e3d6 1e3e 8c79 9abb b3a3 e2bc ca9c adbd
00000160: ab2e 3abe 565d af3d e857 52bd 2c3e d7bd
00000170: 857b 00bd 6a0d 23be b146 be3d 450c b6bc
00000180: 66a2 32be 326b 97bd 4198 00bd 563e 2e3e
00000190: 1d50 4dbe 8fc0 a43d d118 bcbd 70a7 133b
000001a0: 1220 c33d f4df 563d 632e 28be 66a2 7abe
000001b0: 5b99 3abe a51d cabd b8cf 333e 6677 8e3d
000001c0: 2363 91bc f2b9 8d3e 2fb3 ed3d 2c6d 193d
000001d0: 1e4e a73d 59d3 1cbe 6fc2 89bd 91d0 31be
000001e0: 4dac 69be c787 a6be 00be 0c3e e962 bbbd
000001f0: 4037 2f3e c272 70bd 5790 0dbe 5aa5 1cbe
00000200: def1 413e 69d3 ea3d 614a 55be 6778 4ebe
00000210: 19c9 893e dcf8 b93d 743f 653d f0e5 95be
00000220: aceb 4abd 5f4b 7ebd 3dda 943d 9e2f da3c
00000230: 5c5b e3bd 0e05 893c 5b37 3e3e 6a4d 82bd
00000240: 3105 073e 5377 c2bc 29e4 51be b474 933c
00000250: 7168 943b bcd5 e13d aeb6 2cbe 9ac9 67bd
00000260: 9fc7 f63d abe0 9bbc 196a 99bd 3e64 9dbc
00000270: 5842 043e e09c 473e 5d7e 81be e360 6e3e
00000280: 098f 033e 0dc4 34be d095 593d 241f 903d
00000290: c5af 0dbe a8d7 bebd e5e5 b6bc cec8 5b3d
000002a0: 838f 04be 9448 cebc 2603 1c3d d8fb 8abe
000002b0: a51a b43d 1ad0 bdbd 4c35 333d ec5a 3d3b
000002c0: ace3 863d 2378 2ebe e633 28be 267e 8f3b
000002d0: 61a6 13bd c7aa 2fbe 0247 1abe a15f 24be
000002e0: 2a94 5b3e 9651 5d3c 5fe3 09bd 56b1 1d3e
000002f0: 03a3 943c f967 e2bd f834 22be 6883 8dbc
00000300: f742 873a adcb e03d bd20 cd3c 15bd 36bd
00000310: 54e2 183d cb69 66bd 05f7 af3d 45c7 b3bd
00000320: 8da7 37bd 5129 e53a 8dcd 8ebd 1d23 63be
00000330: 0476 9a3e 4bf0 f9bb 78fc bebb 7c04 cabd
00000340: 9365 b93d bec0 b4bd c376 88bc 6cd7 723d
00000350: f90f 5d3e 24c0 00be edf5 d93d 85ec 23be
00000360: 931d 573e 2ebc ce3d 79a8 8f3d fb3b 4cbb
00000370: f2a4 123e fbf9 6abe fe39 36bd ba97 fabd
00000380: d3e3 3f3e 6737 98bd cf3f 59bd 6ce9 9dbc
00000390: 69d7 473e 70c0 4bbe 2e11 c8bc 369e c53d
000003a0: a58c 04bc 55ad 083d 59bd 39be 5a89 86be
000003b0: 55c8 35be e3d0 783d 27dd f7bc 0457 a6bc
000003c0: 511a 5abe fab6 93bd 308e 623e 61e8 ed3d
000003d0: e3ab 60be 60dc 173c d478 84be 52b5 c43d
000003e0: ffec 69be 040c 2b3e ee2f 9e3d 6ead 8d3c
000003f0: 1598 ac3d 0da5 34be 61f9 7dbc 8c05 353e

2.weight f4 [256, 512]
0.07279917 -0.10855251 0.011751955 -0.054425333 -0.051953018 0.16028303 -0.10402547 -0.034671314
0.047581542 -0.034169383 -0.02141909 0.04191949 -0.007800057 0.13565871 0.09724822 -0.07474199
-0.04779213 0.072648846 -0.017845003 -0.18729685 0.066588044 0.07777131 -0.026769808 -0.0272492
-0.12485612 -0.11461785 0.06935966 -0.122560665 -0.07124503 -0.06880895 0.03844968 0.053928673
0.020452594 -0.10076972 0.07745874 -0.08310606 -0.05758926 -0.011139111 0.027848866 -0.07567076
-0.07654227 0.07591833 -0.0783335 -0.07734833 -0.10699176 -0.10923405 0.035906065 -0.11627421
0.060824208 -0.015517743 -0.040346224 -0.12703243 -0.115795225 0.13693485 -0.014970208 -0.11924476
-0.021939544 -0.039942946 -0.17656054 -0.07151645 -0.027946793 -0.005458129 -0.117570095 -0.008847715
0.014320807 0.043424718 0.07409618 0.038910948 -0.10915277 -0.08038571 -0.08173804 -0.0156124355
0.059399806 -0.0732376 -0.0526005 0.011669568 -0.037692927 -0.065865755 0.15031007 -0.07326869
-0.12436015 -0.010624949 0.109202854 0.03245606 -0.03623305 0.10777484 0.09122697 -0.023689056
0.06995661 -0.08073618 -0.031377766 -0.0202258 -0.15444835 -0.01610289 0.038653262 -0.0068725673
0.08991977 -0.02330258 0.048771486 -0.17771655 0.07457079 -0.04449449 0.011340468 0.062283117
-0.08806163 0.042756516 0.072523005 0.039913837 0.13408196 -0.03722055 -0.027900537 -0.033464935
-0.0240907 -0.0017527405 0.15739197 -3.6486632e-05 0.033033453 -0.02682766 0.0059783584 0.02101631
0.054057676 0.08915709 -0.084141865 0.029912768 -0.014769804 -0.12652647 -0.055043984 0.09560652
-0.05208186 -0.09411086 0.13216956 0.014555075 -0.030556973 -0.11216949 0.025417596 0.08753283
0.059377223 -0.011459192 -0.052599814 0.001128402 0.05587788 0.09881725 -0.058863148 -0.14386058
-0.059648816 0.0038091498 -0.019628763 -0.046647646 -0.04418478 -0.12453618 0.034791596 0.06785522
-0.13667223 -0.17511743 -0.0914261 -0.008943428 -0.13440096 -0.17390995 0.052547302 -0.06820763
-0.011825961 -0.095424175 0.027728122 0.07219418 -0.15243499 -0.07488611 0.030292999 -0.0113601005
-0.04750893 0.010036963 -0.15774386 0.020451935 -0.024609674 -0.027815163 -0.031910192 -0.09600911
-0.12305764 0.006638632 0.10200113 -0.050942335 -0.11223616 0.19614395 -0.04750676 0.0025318137
0.1018507 0.026264664 -0.020269522 -0.04987447 -0.018895531 0.038894325 -0.046858475 -0.045816183
0.1945961 0.013668362 0.00064904743 -0.013373552 0.06456089 -0.006900133 -0.034916125 -0.13387097
0.06749648 0.067507505 0.019246629 0.018532626 -0.08948473 -0.092950724 -0.09571339 -0.11540464
-0.10022179 -0.098041564 0.09399482 -7.0249e-05 -0.09660659 -0.018291453 -0.027203642 0.08437964
-0.15045048 -0.044953976 -0.132211 0.0543181 0.09164594 -0.0023807087 0.1371147 0.043606784
-0.11689451 -0.0108881155 -0.079782 -0.072651066 -0.045114905 0.034310427 -0.03861258 -0.06375481
-0.031937316 -0.021266347 -0.06921901 -0.07047503 0.04557545 0.01687798 0.017582787 0.029736705
0.107537016 -0.07482345 -0.18633476 -0.06284607 0.10920341 0.08703276 0.04822831 -0.031506177
0.0052314857 0.025064215 -0.09176618 0.09507237 -0.072343275 -0.09434367 -0.07801743 0.015073934
00000000: bb17 953d c750 debd 468b 403c 19ed 5ebd
00000010: b0cc 54bd 3c21 243e 4e0b d5bd 8203 0ebd
00000020: dde4 423d 32f5 0bbd 1677 afbc c5b3 2b3d
00000030: 9f97 ffbb 1eea 0a3e 132a c73d 5412 99bd
00000040: aec1 43bd ebc8 943d af2f 92bc bfca 3fbe
00000050: 505f 883d 9146 9f3d 5b4c dbbc b739 dfbc
00000060: 91b4 ffbd c3bc eabd 700c 8e3d 1601 fbbd
00000070: eae8 91bd b5eb 8cbd 697d 1d3d 50e4 5c3d
00000080: 338c a73c 5b60 cebd b0a2 9e3d 8333 aabd
00000090: b7e2 6bbd d180 36bc 4e23 e43c 45f9 9abd
000000a0: 32c2 9cbd 127b 9b3d 506d a0bd cd68 9ebd
000000b0: 7f1e dbbd 1ab6 dfbd 3d12 133d 2c21 eebd
000000c0: ce22 793d 223e 7ebc 1542 25bd ca14 02be
000000d0: 0c26 edbd a638 0c3e 9a45 75bc 9936 f4bd
000000e0: 8fba b3bc 379b 23bd 49cc 34be 3777 92bd
000000f0: acf0 e4bc 1bda b2bb 97c8 f0bd 02f6 10bc
00000100: d1a1 6a3c 1ede 313d bdbf 973d 1661 1f3d
00000110: 7d8b dfbd 43a1 a4bd 4666 a7bd 4dcb 7fbc
00000120: 364d 733d 98fd 95bd 9f73 57bd b731 3f3c
00000130: e663 1abd a0e4 86bd e2ea 193e e50d 96bd
00000140: 89b0 febd 4414 2ebc bfa5 df3d a5f0 043d
00000150: 1b69 14bd 0eb9 dc3d 35d5 ba3d 8d0f c2bc
00000160: 6945 8f3d 0359 a5bd f985 00bd 94b0 a5bc
00000170: b527 1ebe 35ea 83bc e252 1e3d 4633 e1bb
00000180: db27 b83d 0de5 bebc 9cc4 473d 54fb 35be
00000190: 92b8 983d db3f 36bd 5fcd 393c 951c 7f3d
000001a0: a859 b4bd 7521 2f3d f186 943d b17c 233d
000001b0: c84c 093e 9374 18bd ab8f e4bc 8712 09bd
000001c0: dc59 c5bc 36bc e5ba 5c2b 213e 3909 19b8
000001d0: 164e 073d aec5 dbbc 1be6 c33b 662a ac3c
000001e0: 956b 5d3d fe97 b63d 9252 acbd 9f0b f53c
000001f0: 0cfd 71bc 2890 01be cd75 61bd 5acd c33d
00000200: ca53 55bd 32bd c0bd 7557 073e 6978 6e3c
00000210: 9e52 fabc 1eb9 e5bd 9038 d03c 6a44 b33d
00000220: 8835 733d 56bf 3bbc e772 57bd e3e6 933a
00000230: 34e0 643d b360 ca3d 7c1a 71bd 3050 13be
00000240: 5152 74bd eea2 793b 80cc a0bc 9a11 3fbd
00000250: 1afb 34bd d30c ffbd a281 0e3d adf7 8a3d
00000260: cef3 0bbe fc51 33be 9b3d bbbd 7587 12bc
00000270: 68a0 09be 7315 32be d73b 573d 71b0 8bbd
00000280: adc1 41bc c06d c3bd 1626 e33c 8bda 933d
00000290: eb17 1cbe e45d 99bd 0629 f83c b71f 3abc
000002a0: b998 42bd 1372 243c 9b87 21be d18a a73c
000002b0: 3a9a c9bc a0dc e3bc 43b4 02bd 6da0 c4bd
000002c0: a505 fcbd e288 d93b f8e5 d03d e9a8 50bd
000002d0: 12dc e5bd f6d9 483e 7396 42bd c9ec 253b
000002e0: 1a97 d03d fe28 d73c 450c a6bc 2c49 4cbd
000002f0: cdca 9abc a84f 1f3d acee 3fbd c0a9 3bbd
00000300: 3344 473e 44f1 5f3c d624 2a3a be1c 5bbc
00000310: 8038 843d 831a e2bb 3604 0fbd 7915 09be
00000320: 983b 8a3d 6041 8a3d 1bab 9d3c bcd1 973c
00000330: c543 b7bd f35c bebd 6205 c4bd 4559 ecbd
00000340: 1541 cdbd 04ca c8bd 5b80 c03d a552 93b8
00000350: add9 c5bd f5d7 95bc 2cda debc 3ccf ac3d
00000360: b10f 1abe a921 38bd 5262 07be a87c 5e3d
00000370: deb0 bb3d aa05 1cbb cc67 0c3e 079d 323d
00000380: 6466 efbd 1164 32bc bf64 a3bd 15ca 94bd
00000390: 68ca 38bd 1789 0c3d 3a28 1ebd e291 82bd
000003a0: b4d0 02bd c336 aebc b2c2 8dbd 3655 90bd
000003b0: 53ad 3a3d b143 8a3c c709 903c 649a f33c
000003c0: 5e3c dc3d 093d 99bd 8ace 3ebe 71b5 80bd
000003d0: 0aa6 df3d 3b3e b23d 0c8b 453d 9f0c 01bd
000003e0: e26c ab3b 7853 cd3c e8ef bbbd 4db5 c23d
000003f0: b628 94bd 4137 c1bd 9ac7 9fbd a9f8 763c

2.bias f4 [256]
-0.16792513 -0.118812114 -0.16114756 -0.122613944 -0.008626861 -0.09537469 -0.025519678 -0.020371262
-0.06866575 -0.03444695 -0.07750685 -0.10495907 -0.16926838 -0.09811445 -0.102647275 -0.20554967
-0.13539672 -0.08625178 -0.16550376 -0.029837303 -0.09370531 -0.091188274 -0.03702155 -0.013249478
-0.11228362 -0.025762314 -0.2512648 -0.18557687 -0.06682386 -0.0031910548 0.04776796 -0.061041918
-0.03415543 -0.0661973 -0.058359005 -0.09993917 -0.027628755 -0.014628697 -0.013790801 -0.12386583
-0.12331497 -0.05226189 0.030357841 -0.17317338 -0.12438647 -0.07095453 -0.18424971 -0.037552726
0.0586038 -0.08093901 -0.044419456 -0.05598943 -0.023973633 -0.06236749 -0.063301764 -0.05519069
-0.07218099 0.034944158 -0.020356946 -0.19988072 -0.0032611212 -0.024743155 -0.125648 0.009219704
-0.14857084 0.0037327087 -0.012404701 -0.14227326 -0.051844686 -0.19209553 -0.1758365 0.062482268
-0.09980848 -0.16467413 -0.12731107 -0.14037788 -0.0529438 -0.09843133 -0.15079562 -0.12212984
-0.15899977 -0.122020386 -0.09224037 0.008895216 -0.2372868 -0.12254178 -0.16025534 0.011363595
-0.016205527 -0.086304404 -0.02574835 -0.01173129 -0.109860346 -0.19311309 -0.105922 -0.0482994
-0.11502274 -0.18119691 -0.14084388 -0.13869202 -0.06425695 -0.20619504 -0.09188912 -0.17478845
-0.04151878 -0.019545525 0.0070556803 0.040654976 -0.11449132 -0.15711065 -0.04688197 -0.05978696
-0.13455282 -0.113977835 -0.11820846 -0.000905117 -0.12337064 -0.13468724 0.07770791 -0.01103294
-0.16229358 0.014586569 -0.20121527 -0.15425135 -0.061056044 -0.07281851 -0.035846252 -0.068196766
-0.1294542 -0.12046002 -0.044058543 -0.15699597 -0.16112699 -0.026941048 -0.023106795 -0.14542682
-0.012462717 -0.0337397 -0.17633298 -0.09048022 -0.117269754 0.008073652 -0.11171299 -0.14973025
-0.05233323 -0.09994724 -0.14221671 -0.08312226 -0.08844656 -0.03389761 -0.11582378 -0.05968327
-0.16579764 -0.10110583 -0.045522094 -0.048567005 -0.15650603 -0.22130612 -0.18941721 -0.082346305
-0.16485998 -0.036263056 -0.058491576 -0.0035031924 -0.038886815 -0.02666528 -0.114055045 -0.22203965
0.022049306 -0.23070778 -0.12006866 -0.0060619335 -0.14331639 -0.11529023 -0.14023055 -0.1088227
-0.04056792 -0.094672374 -0.37038225 -0.31481844 -0.05726063 -0.19832759 -0.066922344 -0.183333
-0.18510754 -0.051783364 -0.08071033 -0.12811403 -0.2217682 -0.15055364 -0.08465584 -0.17568946
-0.021283811 -0.0619842 -0.14655147 -0.15328486 -0.042372923 -0.072121695 -0.10372531 0.029467544
-0.10027671 -0.082659155 -0.041192524 -0.07466499 -0.16638409 -0.08909963 -0.033086177 -0.24214612
-0.08893485 -0.0604085 -0.15916666 -0.117035255 -0.20176202 -0.14552587 -0.14772564 -0.0064427694
-0.1549002 -0.062081475 -0.15836139 -0.07939474 -0.06495749 -0.115210965 -0.08662374 -0.16232376
-0.080192566 -0.015178681 -0.15264805 -0.16341175 -0.15193014 0.0030283562 -0.1776004 -0.00086251914
-0.07457723 -0.15038392 -0.13598354 -0.14444 -0.0013509578 -0.046680413 -0.13663432 -0.06973281
-0.07862 0.023252513 -0.04544307 -0.13728502 -0.113892555 -0.11729963 -0.07581867 -0.013002528
-0.054013643 -0.04828394 -0.113596715 -0.08749423 -0.18693875 -0.059481222 -0.016015874 -0.039257936
00000000: 91f4 2bbe c453 f3bd de03 25be 051d fbbd
00000010: ad57 0dbc ce53 c3bd a50e d1bc a2e1 a6bc
00000020: a1a0 8cbd 3f18 0dbd e9bb 9ebd c8f4 d6bd
00000030: b154 2dbe 3bf0 c8bd bc38 d2bd 9d7b 52be
00000040: 70a5 0abe c6a4 b0bd d179 29be 5c6d f4bc
00000050: 92e8 bfbd ebc0 babd e9a3 17bd 5714 59bc
00000060: f4f4 e5bd 7d0b d3bc c8a5 80be dd07 3ebe
00000070: f3da 88bd 0421 51bb 56a8 433d 1707 7abd
00000080: 90e6 0bbd 7392 87bd da09 6fbd e8ac ccbd
00000090: b355 e2bc 34ad 6fbc d0f2 61bc 5ead fdbd
000000a0: 8f8c fcbd 9010 56bd 02b1 f83c 5d54 31be
000000b0: 55be febd 9c50 91bd f5ab 3cbe e3d0 19bd
000000c0: 8a0a 703d 5ac3 a5bd 2df1 35bd 2c55 65bd
000000d0: 5a64 c4bc 0e75 7fbd 5ba4 81bd a20f 62bd
000000e0: a0d3 93bd 9b21 0f3d 9cc3 a6bc 88ad 4cbe
000000f0: 89b8 55bb 28b2 cabc dfa9 00be 3e0e 173c
00000100: f422 18be 76a0 743b 163d 4bbc 15b0 11be
00000110: 185b 54bd b1b4 44be 7c0e 34be 68ed 7f3d
00000120: 6368 ccbd 56a0 28be d55d 02be 38bf 0fbe
00000130: 99db 58bd 5d96 c9bd 2b6a 1abe 361f fabd
00000140: d6d0 22be d3e5 f9bd 85e8 bcbd 3dbd 113c
00000150: 50fb 72be 2ff7 fabd fa19 24be 5f2e 3a3c
00000160: 74c1 84bc 5dc0 b0bd 34ee d2bc 9934 40bc
00000170: 76fe e0bd 70bf 45be a2ed d8bd 97d5 45bd
00000180: 0b91 ebbd af8b 39be 6139 10be 4805 0ebe
00000190: 2699 83bd cb24 53be 5d30 bcbd befb 32be
000001a0: 990f 2abd f01d a0bc 5633 e73b d585 263d
000001b0: 6d7a eabd 9de1 20be 4f07 40bd 2ce3 74bd
000001c0: 37c8 09be 366d e9bd 4717 f2bd 6045 6dba
000001d0: bfa9 fcbd 74eb 09be 5325 9f3d 81c3 34bc
000001e0: 4a30 26be 81fc 6e3c 600b 4ebe 11f4 1dbe
000001f0: e715 7abd df21 95bd 85d3 12bd bfaa 8bbd
00000200: a48f 04be beb3 f6bd bb76 34bd 8dc3 20be
00000210: 79fe 24be 79b3 dcbc 764a bdbc c5ea 14be
00000220: 6c30 4cbc a432 0abd a290 34be b24d b9bd
00000230: 202b f0bd 5a47 043c c8c9 e4bd e352 19be
00000240: 5e5b 56bd 23b1 ccbd 42a1 11be 013c aabd
00000250: 7823 b5bd 38d8 0abd 0535 edbd 7276 74bd
00000260: dbc6 29be 9310 cfbd 6075 3abd 32ee 46bd
00000270: 1e43 20be 129e 62be 96f6 41be 2ea5 a8bd
00000280: 0ed1 28be 9288 14bd dd94 6fbd d195 65bb
00000290: c847 1fbd 2571 dabc b195 e9bd 5d5e 63be
000002a0: bfa0 b43c a93e 6cbe 8fe6 f5bd 2fa3 c6bb
000002b0: 88c1 12be 491d ecbd 9998 0fbe 70de debd
000002c0: 8c2a 26bd 97e3 c1bd bea2 bdbe e22f a1be
000002d0: 1f8a 6abd 6316 4bbe 950e 89bd a5bb 3bbe
000002e0: d58c 3dbe cb1a 54bd 754b a5bd 5330 03be
000002f0: 3417 63be bc2a 1abe 0b60 adbd f0e7 33be
00000300: 635b aebc 25e3 7dbd 9711 16be b5f6 1cbe
00000310: 3b8f 2dbd 8ab4 93bd ef6d d4bd eb65 f13c
00000320: e05d cdbd 3449 a9bd 7eb9 28bd f5e9 98bd
00000330: 9760 2abe de79 b6bd 5f85 07bd 27f5 77be
00000340: 7a23 b6bd e76e 77bd 96fc 22be 2eb0 efbd
00000350: b49a 4ebe bc04 15be 6445 17be de1d d3bb
00000360: 289e 1ebe 2549 7ebd 7d29 22be b699 a2bd
00000370: 6f08 85bd baf3 ebbd ca67 b1bd 3338 26be
00000380: 003c a4bd 01b0 78bc c54f 1cbe 6955 27be
00000390: 9393 1bbe 6377 463b e1dc 35be ae1a 62ba
000003a0: f2bb 98bd 3efe 19be 453f 0bbe 14e8 13be
000003b0: 9f12 b1ba f633 3fbd dee9 0bbe 13d0 8ebd
000003c0: 8603 a1bd 0e7c be3c 8322 3abd 7294 0cbe
000003d0: 8040 e9bd ca3a f0bd d246 9bbd 8e08 55bc
000003e0: 693d 5dbd 61c5 45bd 65a5 e8bd 2d30 b3bd
000003f0: df6c 3fbe 95a2 73bd b933 83bc eecc 20bd

4.weight f4 [128, 256]
-0.040269062 0.009895922 0.029061908 -0.04383878 -0.0040818336 -0.02393708 -0.14074375 -0.019884188
0.12960558 -0.042760037 0.121275574 0.035487898 -0.0711945 0.066707574 0.069139995 -0.059225414
-0.0050228564 -0.017035669 0.17559776 -0.0054542683 -0.026185637 -0.06355787 -0.04929271 -0.0021890725
-0.10706204 0.09468668 -0.019622713 0.15446773 0.04616538 -0.01968723 0.03537178 -0.048550386
-0.07261845 -0.14076725 0.15181711 0.08268441 0.14717558 0.036357164 -0.048493396 0.17318271
-0.0013793116 -0.05428307 -0.077573955 -0.122394115 -0.054262646 -0.1223246 0.11873982 -0.12234955
0.052401267 -0.06243734 0.044993583 -0.090779625 -0.057424035 -0.14097252 0.049480468 0.04518033
0.01976803 -0.036737252 0.055985846 -0.025929954 -0.019344978 -0.01892519 -0.039489955 -0.080878735
-0.11998449 -0.052982245 0.091016926 0.18146469 0.045609225 0.06842426 -0.057482526 0.021376593
-0.06999852 0.06348138 0.08948828 -0.027153742 -0.06218301 0.018858323 -0.022747789 0.0145799415
-0.077487335 0.0718502 0.0074520265 -0.17552197 0.015493696 0.09233886 0.05563495 -0.20589514
-0.114107825 0.064669445 -0.11591574 -0.11950094 -0.10576491 0.05698275 -0.065432325 -0.16937941
-0.09712782 -0.05177741 0.01874351 -0.054319803 0.079612225 0.045613267 -0.13104725 0.07771812
0.013246145 -0.050599087 0.06862074 0.0063568642 0.10798539 0.015674906 0.08288233 -0.009697959
-0.107998736 -0.10136472 -0.057884093 -0.19345914 -0.036138255 0.08578831 -0.006145206 -0.18260108
0.086766556 -0.059454456 0.012566089 -0.01406816 0.01692059 0.13085319 0.15683813 -0.12244144
0.13306297 0.008170828 -0.0117659215 -0.0121978745 0.024226576 0.026734827 -0.013948095 -0.016596556
-0.02828359 0.015691467 0.012530165 -0.050361317 0.06467828 -0.0075945496 0.08149648 0.008077966
-0.033907358 -0.05766321 -0.05384537 -0.13629742 0.059043203 -0.17181304 0.042139307 -0.048151515
0.01186486 -0.10348095 -0.06857722 0.09794798 0.046382483 0.073516354 0.022626515 -0.027428567
0.11463361 -0.042644355 -0.08741299 -0.01987823 -0.03651602 0.004516712 -0.0459229 -0.036157
-0.063527055 0.03311124 0.0808355 -0.038985714 0.13491647 0.025767429 -0.045341123 0.037370425
-0.028543232 0.06577082 0.031188048 -0.021590177 0.016262084 0.10036036 -0.045468356 0.016689284
0.060418997 0.10512437 0.05066993 0.06580222 0.07512668 0.04136431 0.032236487 0.070752636
-0.04482931 0.054402545 0.013363711 0.032926634 -0.14339852 -0.03800305 -0.17257349 -0.0064729336
0.0806474 -0.01916292 -0.03914494 0.088803254 0.044506025 0.037504587 0.13527405 -0.07249744
0.07111406 0.09466677 -0.033452213 0.00073134503 -0.0019757466 -0.019322213 -0.01352809 -0.08087757
-0.029119868 -0.09793441 0.051163174 0.021858532 0.018798206 -0.16233736 -0.07247255 0.07320481
0.00043606194 -0.03182094 -0.058539446 0.15006247 -0.006874638 -0.10755837 0.030931376 0.01948245
0.0851573 -0.04300466 0.09217211 0.002549957 -0.1922287 0.013895917 -0.008173721 0.095403045
-0.12968369 -0.014485651 -0.0903019 -0.0128946295 0.0043381504 0.15658152 -0.103468455 -0.06065589
-0.00720043 -0.17577316 -0.07854231 -0.07339864 0.047915094 -0.10570255 0.03748115 0.009862702
00000000: 2cf1 24bd 8122 223c 3d13 ee3c 4b90 33bd
00000010: e7c0 85bb b217 c4bc 211f 10be 2ae4 a2bc
00000020: 53b7 043e 2625 2fbd 545f f83d c25b 113d
00000030: 6cce 91bd fb9d 883d 4599 8d3d 5996 72bd
00000040: c696 a4bb 638e 8bbc e6cf 333e b8b9 b2bb
00000050: 4383 d6bc a12a 82bd 27e7 49bd 8b76 0fbb
00000060: 5843 dbbd 17eb c13d d0bf a0bc ca2c 1e3e
00000070: e917 3d3d 1d47 a1bc 00e2 103d c5dc 46bd
00000080: fbb8 94bd 4a25 10be f275 1b3e 7256 a93d
00000090: 32b5 163e 40eb 143d 03a1 46bd cf56 313e
000000a0: 04ca b4ba ed57 5ebd 18df 9ebd c4a9 fabd
000000b0: 8242 5ebd 5285 fabd dd2d f33d 6792 fabd
000000c0: b6a2 563d 4cbe 7fbd 314b 383d abea b9bd
000000d0: 7735 6bbd 1a5b 10be 08ac 4a3d 020f 393d
000000e0: 90f0 a13c cd79 16bd 6a51 653d 0e6b d4bc
000000f0: 5c79 9ebc 0009 9bbc 38c0 21bd c0a3 a5bd
00000100: 6eba f5bd e903 59bd 1567 ba3d e1d1 393e
00000110: bdd0 3a3d 0522 8c3d cc72 6bbd f71d af3c
00000120: 625b 8fbd 8702 823d a245 b73d 8671 debc
00000130: 9db3 7ebd c57c 9a3c 9259 babc b5e0 6e3c
00000140: aeb1 9ebd 3326 933d 2130 f43b 08bc 33be
00000150: 45d9 7d3c 281c bd3d 79e1 633d 2dd6 52be
00000160: 5db1 e9bd 6a71 843d 3b65 edbd e9bc f4bd
00000170: 469b d8bd be66 693d 6201 86bd cc71 2dbe
00000180: f3ea c6bd 8d14 54bd fd8b 993c 717e 5ebd
00000190: bc0b a33d fad4 3a3d 4031 06be ad2a 9f3d
000001a0: 5c06 593c fd40 4fbd 0889 8c3d 3e4d d03b
000001b0: 7227 dd3d a968 803c 36be a93d 30e4 1ebc
000001c0: 712e ddbd 4e98 cfbd df17 6dbd 271a 46be
000001d0: b505 14bd c8b1 af3d b95d c9bb c7fb 3abe
000001e0: aab2 b13d 8486 73bd ffe1 4d3c 247e 66bc
000001f0: 0d9d 8a3c 61fe 053e 2d9a 203e 94c2 fabd
00000200: a941 083e f0de 053c dac5 40bc 98d9 47bc
00000210: d076 c63c ff02 db3c 8d86 64bc 80f5 87bc
00000220: fdb2 e7bc 648b 803c 524b 4d3c ab47 4ebd
00000230: 0c76 843d b3db f8bb a0e7 a63d 7259 043c
00000240: 71e2 0abd 4230 6cbd f68c 5cbd 8d91 0bbe
00000250: 49d7 713d c2ef 2fbe 449a 2c3d 863a 45bd
00000260: d464 423c d2ed d3bd 3772 8cbd f398 c83d
00000270: 8ffb 3d3d be8f 963d 3e5b b93c e0b1 e0bc
00000280: 07c5 ea3d d9ab 2ebd 9505 b3bd abd7 a2bc
00000290: d291 15bd ed00 943b a719 3cbd 5d19 14bd
000002a0: 791a 82bd a79f 073d 158d a53d 7caf 1fbd
000002b0: 8b27 0a3e 3716 d33c 9db7 39bd bb11 193d
000002c0: 7fd3 e9bc dab2 863d 147e ff3c e2dd b0bc
000002d0: 1038 853c bc89 cd3d 073d 3abd f7b7 883c
000002e0: e979 773d 724b d73d 468b 4f3d 50c3 863d
000002f0: 04dc 993d 9f6d 293d 680a 043d c2e6 903d
00000300: f09e 37bd 34d5 5e3d 77f3 5a3c 14de 063d
00000310: 10d7 12be 16a9 1bbd 1bb7 30be e71a d4bb
00000320: 772a a53d 8efb 9cbc 7256 20bd 7bde b53d
00000330: f34b 363d 699e 193d 4885 0a3e 8a79 94bd
00000340: 40a4 913d a7e0 c13d 3005 09bd bcb7 3f3a
00000350: 877b 01bb 9e49 9ebc eca4 5dbc 24a3 a5bd
00000360: ca8c eebc d691 c8bd 7a90 513d aa10 b33c
00000370: b2fe 993c c43b 26be 7d6c 94bd 67ec 953d
00000380: 3e9f e439 ad56 02bd 0fc7 6fbd faa9 193e
00000390: a544 e1bb 9047 dcbd cc63 fd3c a999 9f3c
000003a0: f366 ae3d a825 30bd bbc4 bc3d 2e1d 273b
000003b0: 9ad7 44be b3ab 633c 12eb 05bc ac62 c33d
000003c0: cdcb 04be 3955 6dbc 34f0 b8bd ff43 53bc
000003d0: 0b27 8e3b e856 203e 45e7 d3bd 4f72 78bd
000003e0: 96f1 ebbb e1fd 33be cada a0bd 0752 96bd
000003f0: 9e42 443d 947a d8bd d685 193d 2c97 213c

4.bias f4 [128]
-0.0749853 -0.02611248 -0.057447188 -0.2474753 -0.0008770834 -0.07637207 0.02087063 -0.032192897
-0.16195977 -0.13070036 -0.054404028 -0.0036097511 0.0048044496 -0.07159067 -0.0014677852 -0.09779281
-0.08250495 -0.030882576 -0.12686928 -0.10163756 -0.036990378 -0.12790841 -0.051790543 -0.001814889
0.006123163 -0.07986672 -0.024225967 -0.074637495 -0.048440788 -0.16075538 -0.1770441 -0.072376326
-0.06814589 -0.024343472 -0.17125557 -0.13535567 0.013076722 0.01626187 0.01021192 -0.03715144
-0.053515024 -0.1456679 -0.03335922 -0.0074093305 -0.083184525 -0.102332704 -0.083480194 -0.13509072
-0.043954637 -0.053857934 -0.09152419 -0.14726914 -0.08157665 0.0079601295 -0.036510978 -0.050255775
-0.08156962 -0.057353523 0.0035657124 -0.20044576 -0.061407536 -0.07100493 -0.09364437 -0.03347246
-0.20279717 -0.003368443 -0.009507162 0.082097046 -0.15420412 -0.09620593 -0.09098623 -0.1606948
-0.11221625 -0.0074320794 -0.057966597 -0.021855988 -0.0015442815 -0.01964355 -0.086251564 -0.00024139456
-0.06944971 -0.10662776 -0.08246391 -0.06475562 -0.057819907 -0.072423436 -0.05198466 -0.015514547
-0.11754534 -0.05956696 -0.049365547 -0.059311386 -0.13050191 -0.05223893 -0.08109348 -0.11858214
0.04527496 -0.023754759 -0.05169604 -0.044320304 -0.060994487 -0.10694617 -0.041419383 -0.03531764
-0.029590823 -0.024780527 -0.056250248 -0.12240197 0.006420847 0.019446112 -0.13142912 -0.12687074
-0.109641954 -0.044254597 -0.12854905 -0.038375493 -0.11974846 -0.21355206 -0.025598602 -0.14677852
0.029457353 -0.019774642 -0.061270386 -0.02686299 0.01867504 -0.110835046 -0.04177479 -0.07516782
00000000: e591 99bd d7e9 d5bc be4d 6bbd 2a6a 7dbe
00000010: 12ec 65ba f668 9cbd e2f8 aa3c b3dc 03bd
00000020: c8d8 25be 51d6 05be c2d6 5ebd 9391 6cbb
00000030: a56e 9d3b 219e 92bd b362 c0ba 9947 c8bd
00000040: 5bf8 a8bd 75fd fcbc 05ea 01be 5a27 d0bd
00000050: 3983 17bd 6cfa 02be 5222 54bd 92e1 edba
00000060: d0a4 c83b 2a91 a3bd 8975 c6bc 8bdb 98bd
00000070: d969 46bd 0f9d 24be 0c4b 35be 0a3a 94bd
00000080: 1390 8bbd f66b c7bc 9f5d 2fbe ad9a 0abe
00000090: bf3f 563c 9d37 853c e64f 273c 1c2c 18bd
000000a0: 9232 5bbd f729 15be ada3 08bd f8c9 f2bb
000000b0: a65c aabd cf93 d1bd aaf7 aabd 3955 0abe
000000c0: c709 34bd 239a 5cbd 0971 bbbd b9cd 16be
000000d0: a911 a7bd 346b 023c 898c 15bd 00d9 4dbd
000000e0: f90d a7bd 87eb 6abd baae 693b a741 4dbe
000000f0: 7886 7bbd 086b 91bd 9fc8 bfbd 6b1a 09bd
00000100: 10aa 4fbe 19c1 5cbb edc3 1bbc 7f22 a83d
00000110: afe7 1dbe 9d07 c5bd fd56 babd 2d8d 24be
00000120: a2d1 e5bd cd88 f3bb 626e 6dbd 540b b3bc
00000130: 7d69 caba 83eb a0bc a9a4 b0bd dc1e 7db9
00000140: a63b 8ebd a85f dabd d7e2 a8bd 989e 84bd
00000150: 91d4 6cbd bd52 94bd deed 54bd ba30 7ebc
00000160: 9cbb f0bd 7cfc 73bd 8733 4abd 7ff0 72bd
00000170: 4ba2 05be 7df8 55bd 5714 a6bd 31db f2bd
00000180: 3d72 393d 5799 c2bc 3abf 53bd 3589 35bd
00000190: 5bd5 79bd 9806 dbbd 5fa7 29bd 3ba9 10bd
000001a0: 7468 f2bc 8800 cbbc a966 66bd e2ad fabd
000001b0: f865 d23b 744d 9f3c 5b95 06be 67ea 01be
000001c0: f68b e0bd 4f44 35bd 5da2 03be 9f2f 1dbd
000001d0: ae3e f5bd 64ad 5abe 29b4 d1bc 1c4d 16be
000001e0: 8c50 f13c 6efe a1bc a8f6 7abd c60f dcbc
000001f0: 66fc 983c 7cfd e2bd 0b1c 2bbd 96f1 99bd

6.weight f4 [12, 128]
-0.07423054 -0.077509046 -0.0024587465 0.021330219 -0.0039290073 0.07374772 0.025229972 -0.011632446
0.093141116 -0.070766464 -0.105611615 0.003407689 -0.16068354 -0.03224668 0.031186314 -0.079725154
-0.044384208 -0.004638607 0.020885846 0.01609414 -0.03266795 -0.12718587 -0.0015027073 -0.08443473
0.087676145 -0.0028547866 0.08429803 0.023494588 0.11089906 -0.009817739 -0.05476119 -0.11119655
-0.0039480296 0.009706544 -0.012366488 -0.04854518 -0.08540589 -0.02233142 0.04029047 -0.03998758
-0.10555366 -0.033257432 0.0539973 0.01903952 0.09846338 0.031092908 -0.049153514 -0.0087135425
0.038110223 -0.027078995 -0.038302436 0.05688869 -0.026640253 0.07180706 -0.047395144 0.09502643
-0.034835376 -0.06589038 0.030526677 0.016606057 0.07678975 0.046401523 -0.0652415 -0.026228921
0.05000133 -0.016744481 0.029706355 0.033202406 0.008061227 -0.07978851 0.11315439 -0.029301116
-0.07473316 0.026728243 0.13970596 0.04050682 0.055804987 0.084378555 -0.15100546 -0.0097471895
-0.05911922 -0.030468535 0.009613365 -0.03434972 -0.047252715 0.060789056 -0.14210111 -0.08559313
0.005095119 -0.055877496 0.0450114 0.060790136 0.04760635 -0.00820501 0.06280097 -0.0039306246
0.006857487 0.065950006 -0.08218189 -0.042977996 -0.02021758 0.004226838 0.089742966 -0.03057036
-0.07437413 -0.04331441 -0.034213874 0.008887609 -0.02410049 0.028906222 0.016093062 0.0746416
0.026229905 0.013044907 -0.040553093 0.038878664 -0.035607718 0.011050583 0.04417308 -0.01913314
0.018227315 0.071941584 -0.04313424 0.042910337 -0.111320734 -0.015415464 -0.0214252 0.041845378
-0.05174907 0.046101775 -0.009953308 0.085201666 0.057963453 -0.0071275644 -0.029463487 0.026792616
-0.0048434543 -0.0455879 -0.07565615 0.048768006 -0.107354224 -0.025901869 -0.022697637 0.08065729
-0.03788999 -0.057221755 -0.050602853 0.11380353 0.06246917 0.044450432 -0.0014192341 0.018546194
-0.017393596 0.006547988 -0.0039671394 0.06366835 0.021212744 -0.032650206 0.1102093 -0.023766793
-0.07133292 -0.026448999 0.04486988 -0.012886128 -0.07220592 0.0012963046 0.03982099 0.001849194
-0.003788488 -0.040585365 -0.019137712 -0.030581253 -0.02944363 -0.0683512 0.028399028 0.08293192
0.012453896 0.0843675 0.07571093 -0.017470542 -0.012785708 -0.028229011 0.038392235 -0.0046963277
-0.09707307 0.009490017 0.022023566 0.0069957594 -0.03808948 0.043443676 0.032027934 -0.029581424
-0.023638232 -0.044271227 0.0445312 0.004529678 0.045413334 0.06740614 0.009259481 0.0084710205
0.0016441696 -0.02056243 -0.065432765 -0.022996122 0.021584984 -0.061985627 -0.06915427 0.019821793
-0.059496045 0.029264111 -0.0008913524 -0.023860032 0.06160274 0.0580317 -0.017707577 0.00611511
0.03432029 -0.073123634 -0.0074199867 0.07179538 0.0022182127 0.073222876 0.08408533 -0.050082188
-0.024501571 -0.019215196 0.046329003 0.021172477 -0.11268163 -0.048328556 -0.017379193 0.007498689
0.06320436 0.010966636 0.027597204 0.08460134 -0.012441142 0.012801368 -0.0283558 0.0706897
0.06192395 0.0027210447 0.080322064 0.038018618 -0.05081872 -0.07707777 -0.10115394 0.0660646
0.006542635 -0.09791293 -0.007318252 -0.045311287 0.044956222 0.0031904613 0.05005148 -0.019139994
00000000: 2e06 98bd 10bd 9ebd ec22 21bb b6bc ae3c
00000010: e7be 80bb 0b09 973d 16af ce3c 0496 3ebc
00000020: c5c0 be3d 02ee 90bd e74a d8bd 8953 5f3b
00000030: 3a8a 24be 1815 04bd 717a ff3c f146 a3bd
00000040: 37cc 35bd 75ff 97bb cb18 ab3c dcd7 833c
00000050: d4ce 05bd 033d 02be 7df6 c4ba 1eec acbd
00000060: 8d8f b33d 5f17 3bbb 72a4 ac3d b977 c03c
00000070: 0c1f e33d 95da 20bc 454d 60bd 04bb e3bd
00000080: 795e 81bb 3208 1f3c cf9c 4abc 50d7 46bd
00000090: 49e9 aebd 62f0 b6bc 9f07 253d 04ca 23bd
000000a0: 842c d8bd f238 08bd 462c 5d3d c4f8 9b3c
000000b0: 2ba7 c93d 8eb6 fe3c 3255 49bd 3fc3 0ebc
000000c0: 7719 1c3d c5d4 ddbc 04e3 1cbd 1d04 693d
000000d0: a93c dabc 940f 933d 6921 42bd 389d c23d
000000e0: 8aaf 0ebd 89f1 86bd 1513 fa3c 6d09 883c
000000f0: f243 9d3d 860f 3e3d 569d 85bd 09de d6bc
00000100: 32ce 4c3d b92b 89bc be5a f33c 3fff 073d
00000110: 3d13 043c 2968 a3bd 7dbd e73d e508 f0bc
00000120: b30d 99bd 30f5 da3c 140f 0f3e 7bea 253d
00000130: c593 643d aace ac3d 2da1 1abe adb2 1fbc
00000140: ff26 72bd 2699 f9bc 6081 1d3c 4bb2 0cbd
00000150: 108c 41bd f2fd 783d f482 11be 734b afbd
00000160: f5f4 a63b cddf 64bd e05d 383d 14ff 783d
00000170: e0fe 423d 4e6e 06bc cc9d 803d 78cc 80bb
00000180: c5b4 e03b cc10 873d fb4e a8bd b209 30bd
00000190: 579f a5bc 4981 8a3b 29cb b73d b16e fabc
000001a0: 7751 98bd 736a 31bd d923 0cbd 559d 113c
000001b0: 646e c5bc becc ec3c 99d5 833c b2dd 983d
000001c0: 19e0 d63c 4eba 553c 001b 26bd 3c3f 1f3d
000001d0: 66d9 11bd 810d 353c d5ee 343d 1abd 9cbc
000001e0: 7351 953c 1c56 933d 87ad 30bd c0c2 2f3d
000001f0: 20fc e3bd 2491 7cbc e783 afbc 0f66 2b3d
00000200: d5f6 53bd 37d5 3c3d 3313 23bc 367e ae3d
00000210: 166b 6d3d 588e e9bb 695d f1bc 307c db3c
00000220: d7b5 9ebb 61ba 3abd 9df1 9abd f6c0 473d
00000230: 88dc dbbd 2830 d4bc 65f0 b9bc a62f a53d
00000240: 8932 1bbd 5c61 6abd f044 4fbd d311 e93d
00000250: acdf 7f3d a811 363d 9805 baba 30ee 973c
00000260: 047d 8ebc 8190 d63b c7fe 81bb 8d64 823d
00000270: 59c6 ad3c 39bc 05bd 6ab5 e13d 94b2 c2bc
00000280: fe16 92bd 92ab d8bc 7bc9 373d 5720 53bc
00000290: b3e0 93bd c4e8 a93a 561b 233d a860 f23a
000002a0: 4848 78bb d73c 26bd b1c6 9cbc 8985 fabc
000002b0: c433 f1bc b7fb 8bbd 14a5 e83c 36d8 a93d
000002c0: 6d0b 4c3c dec8 ac3d 550e 9b3d 621e 8fbc
000002d0: 257b 51bc 8740 e7bc 2d41 1d3d a7e3 99bb
000002e0: 3fce c6bd 047c 1b3c c46a b43c af3c e53b
000002f0: b703 1cbd fff1 313d b92f 033d be54 f2bc
00000300: f7a4 c1bc bf55 35bd 5966 363d b16d 943b
00000310: 5503 3a3d 3b0c 8a3d 14b5 173c 09ca 0a3c
00000320: 2d81 d73a 8b72 a8bc 9d01 86bd 5d62 bcbc
00000330: fed2 b03c a4e4 7dbd c1a0 8dbd 5061 a23c
00000340: 20b2 73bd 4abb ef3c a6a9 69ba 1d76 c3bc
00000350: 2853 7c3d a6b2 6d3d 7b0f 91bc 4361 c83b
00000360: 6f93 0c3d d8c1 95bd 5c23 f3bb 7509 933d
00000370: 6f5f 113b e0f5 953d ee34 ac3d fb22 4dbd
00000380: 85b7 c8bc 3069 9dbc 7bc3 3d3d e771 ad3c
00000390: a0c5 e6bd 2af4 45bd cf5e 8ebc 90b7 f53b
000003a0: 4a71 813d 68ad 333c 8813 e23c 7843 ad3d
000003b0: efd5 4bbc d4bc 513c 6c4a e8bc c3c5 903d
000003c0: f8a3 7d3d 8e53 323b e57f a43d 69b9 1b3d
000003d0: 4a27 50bd f3da 9dbd cc29 cfbd e14c 873d
000003e0: 9a63 d63b 9386 c8bd f3cd efbb 5498 39bd
000003f0: 0424 383d 0f17 513b c802 4d3d 7acb 9cbc

6.bias f4 [12]
0.010451863 -0.06547869 0.08062151 0.0627847 -0.09374076 0.088390835 -0.060581632 0.11622121
0.04094665 0.12912706 0.13135025 0.20934707
00000000: 4a3e 2b3c b119 86bd e41c a53d 4495 803d
00000010: 28fb bfbd 4106 b53d 7224 78bd 6305 ee3d
00000020: adb7 273d e239 043e ae80 063e 145f 563e
